lstm_model.pth (torch, 208555 bytes, 10 tensors)

lstm.weight_ih_l0 f4 [256, 4]
00000000: 4dcb 95bd 22e5 bdbe af04 89be ceaf 933d
00000010: 1660 c1bd 6450 0dbf 341c 8dbe dc60 06bd
00000020: 1d65 a03e fdc2 ae3d b61a f9bd 7b86 abbd
00000030: aba6 e43d 820a 73bd 94c9 52bc 6bf5 6a3e
00000040: 5921 3d3c c134 013e a83e e8be a28e bcbd
00000050: 1d8e dcbd bdbd e63d d128 13be 3328 abbd
00000060: 212a 85bd bd23 04bf 6290 4c3d 7a4d eb3d
00000070: 5927 e1bd 8c91 9abe 5505 a3be 173a 2abe
00000080: ddbe 9bbd 93aa 6ebb bba7 5c3e 0d47 8f3c
00000090: faa8 e1bd ce61 c6bd 5d15 903e ce86 3dbd
000000a0: c898 013e ff06 953f 2c0c abbd 9bac b9bd
000000b0: b9e5 2cbd 1654 f9bd de1a b1be 493c 03bd
000000c0: e953 0cbc 929c 6d3e 58f8 acbd 8628 673d
000000d0: 3eae 5b3e 98ca 4abd e91d bebe 815c d9bd
000000e0: 3080 f8be adbf 0a3f 6763 6dbd 38c5 0e3e
000000f0: 415a 033e 43b0 033f 4089 83be ef77 a13d
00000100: a7bb 27bd 0f21 093f ba86 75be 8a1c 503d
00000110: 3f67 0cbe 6bcc 813e dcc5 e8be 2692 75bd
00000120: 793d 173e 24ec f6be 180f 04bf 61fe d1bd
00000130: 76f3 0fbe e46c 093e 4a56 c2be 002a f1bd
00000140: 4b3d b0bd 9f4b 9abe adfc 95be 6331 673c
00000150: 6311 023f 814f 933d 7f95 69be 27a7 fbbb
00000160: 9d23 ebbd 0372 1a3d eeff b0be ec10 97bd
00000170: 3065 ffbe 3be8 56bc e349 d4bb b12f 323d
00000180: f3d3 2dbe 2662 bebe ff12 263d 9313 73bd
00000190: 5440 983d b6c8 04bf 3a28 85be 5695 afbe
000001a0: ee6c cebd 7ba9 fd3c 85a1 a83d 558f 70bd
000001b0: 286c 923e b703 fb3e 5dbe 07bf ce74 9cbd
000001c0: 52bf b43e 3556 383e f8eb 04bf 46d0 433c
000001d0: 3fbf 8ebd 9331 e53e 32ff 2ebe 5cae d63d
000001e0: f82b f23c 5c7e 903f 8d86 5a3c 3a52 48be
000001f0: a781 fdbc c1ef 0d3f eae7 95be a8b7 783d
00000200: a398 e7bd ec54 223e efea 7c3c 1448 77bd
00000210: a882 a33e 1e51 dd3d 9df2 43be 81cd 143d
00000220: d694 493e c693 e13e ca4d d1be 4b1c 9cbd
00000230: 9e20 11be 0aa0 0b3f b77b 25be b1da 0fbe
00000240: 7994 093e 6fa7 753f 1544 41be 24b5 dabd
00000250: c770 7f3e 01f6 573e 025f bcbe adc2 eebd
00000260: 0449 1dbe 638c adbe 0fdc 67be c120 103e
00000270: ec81 9abe 72dd 90bd b757 cbbd 96fe 3e3d
00000280: f7b2 f0bd 6bb2 713d 3488 c4be 33a7 a0bb
00000290: fb40 5d3e eb62 f83e 7532 8cbe c971 01bb
000002a0: 2ec1 d43c ba49 933f 532b e7be 1710 703e
000002b0: 5684 693e 80ce 543f e3d0 86be 2332 2e3e
000002c0: 3a6a 82bd 02cb 853c ac25 02bf 6e80 aebe
000002d0: 279f b33e 1fdd 083e 9806 a2be 7601 6bbd
000002e0: 0ffe 23bf a4c8 053f 6be4 993e 2cb4 4f3e
000002f0: d456 10be caed c6bd 9ad7 433c 4158 343d
00000300: 8142 babc 35cb bfbf b664 c0be f636 c5be
00000310: aa0f 193e a9a0 113f eaff 05be ec9a 283d
00000320: 98eb 3bbd 0625 0d3f 3bce 9cbe 37ce 9f3c
00000330: fd4a 55bb 739b 93bf 8f91 283e 4f1b 19bf
00000340: 0c6a 0c3e 6172 13bf 6553 e2be cacc 71be
00000350: 5980 b53e 6aa7 743e 422f aebd 436c 083d
00000360: f358 0bbe ad4e 01be cca4 7dbe e99b 8c3e
00000370: f5ac 943e 0434 183e 96b6 12bf ccb1 29be
00000380: 6efd 3abe 01e6 b4bd c509 2ebd d710 57bd
00000390: 8bd9 2bbe 97d9 e03d 1c82 b0be 190b 4bbe
000003a0: 22ca ef3e 0d98 a13e c1af 9abe a7b3 01be
000003b0: 8fad 343d 73c0 b83e b056 9cbe 479a ab3c
000003c0: 5148 0abe a8e2 913d 1cbc 66bd e1c7 ea3d
000003d0: 4cfa ad3d 424b bb3e a6b3 a0be c4fa 233d
000003e0: d19b c63e 5c24 6cbc 6df9 cebe de30 bdbd
000003f0: bb27 793d 475f 8c3e 6bd1 b8be 858c 853d
-0.07314167 -0.37088877 -0.26761386 0.072112665 -0.09442155 -0.5520079 -0.2756058 -0.032807216
0.31327143 0.08533285 -0.12163298 -0.083752595 0.11164602 -0.059336193 -0.012865443 0.22945182
0.011543595 0.1261778 -0.45360303 -0.092068925 -0.107692935 0.112666585 -0.14371039 -0.08357277
-0.06502176 -0.5161703 0.04994238 0.11489387 -0.10993833 -0.30189168 -0.31840006 -0.16623722
-0.07604764 -0.0036417588 0.21548359 0.017489934 -0.11018558 -0.096866235 0.281413 -0.046271138
0.12655938 1.164276 -0.08351931 -0.09066125 -0.042211268 -0.12174241 -0.3459081 -0.032039914
-0.008564928 0.23204258 -0.08445805 0.05643513 0.21453187 -0.049509615 -0.37132195 -0.10613347
-0.485353 0.54198724 -0.057956126 0.1394242 0.12827398 0.5144083 -0.2569065 0.07884204
-0.040950444 0.5356607 -0.23977175 0.050808467 -0.1371126 0.2535127 -0.45463455 -0.05995383
0.14769544 -0.48227036 -0.5158553 -0.10253597 -0.14057717 0.13420445 -0.37956458 -0.11775589
-0.08605441 -0.3013582 -0.2929434 0.014110896 0.5080778 0.071928985 -0.22810934 -0.007679838
-0.11481402 0.037706386 -0.3457026 -0.073762745 -0.49881887 -0.0131168915 -0.0064785345 0.043502513
-0.16975383 -0.37184256 0.04054546 -0.05934484 0.074341446 -0.5186876 -0.26007253 -0.34293622
-0.100793704 0.030964604 0.082339324 -0.058730442 0.28598142 0.49026272 -0.53024846 -0.07639466
0.35302216 0.18001635 -0.5192256 0.011951512 -0.06970071 0.44764385 -0.17089537 0.10482475
0.029561982 1.1288562 0.0133377435 -0.19562617 -0.030945612 0.5544396 -0.292785 0.060722023
-0.1130841 0.15852708 0.015436872 -0.060371473 0.3193562 0.108064875 -0.19135518 0.036328796
0.19685683 0.44058055 -0.4087966 -0.07622584 -0.14172599 0.54541075 -0.16160475 -0.14048268
0.13435544 0.9595861 -0.18873627 -0.10679081 0.24945365 0.21089937 -0.36791235 -0.11658225
-0.15359885 -0.3389617 -0.2264254 0.14074995 -0.30177248 -0.07073487 -0.0992884 0.04662951
-0.11752885 0.059008043 -0.38385165 -0.004902744 0.2160682 0.48512968 -0.27382246 -0.001975166
0.025971022 1.1506875 -0.4515024 0.23443638 0.22804388 0.83127594 -0.26331243 0.17011313
-0.06367917 0.016332153 -0.5083873 -0.3408236 0.3508236 0.13365601 -0.31645656 -0.05737444
-0.6405954 0.5225928 0.30057082 0.20283574 -0.14095622 -0.097133234 0.011953259 0.044029478
-0.02273679 -1.4983889 -0.37576836 -0.38518494 0.14947382 0.5688577 -0.13085905 0.04116337
-0.045878977 0.5513462 -0.3062609 0.01950751 -0.0032545917 -1.1531814 0.16461776 -0.59807295
0.13712329 -0.57596403 -0.4420425 -0.23613277 0.35449484 0.23891988 -0.085051075 0.03330637
-0.1360815 -0.12627669 -0.24769896 0.274627 0.29038206 0.14863592 -0.57309854 -0.1657173
-0.18260738 -0.08832932 -0.042489786 -0.052506294 -0.16782205 0.10979002 -0.34474266 -0.19828452
0.46833903 0.31561318 -0.30212215 -0.12666188 0.04411083 0.36084327 -0.30534887 0.020947589
-0.13504149 0.071233094 -0.05633174 0.11463905 0.08495006 0.36580855 -0.3138706 0.04003407
0.38790753 -0.014412966 -0.40424672 -0.09237836 0.060828906 0.2741644 -0.36097273 0.065209426

lstm.weight_hh_l0 f4 [256, 64]
00000000: d625 cd3d 8cb1 f13b 5c0d de3d 392a 9e3c
00000010: e828 13bc cae4 f33d fcb0 79be 3799 023e
00000020: b3f1 eebc ac92 f9bd d17b 6c3d 225c 65be
00000030: 4f5e 0a3e 824a c7bd 539e 653d 1493 cbbd
00000040: 8856 98be ccf8 a43e a63f 25be bba5 57be
00000050: 1abc 0bbe 5369 ab3d 77f5 a73d a0ff 403e
00000060: 0ae9 b93e 6f14 62bd 1d34 1f3e 4e1c 6fbd
00000070: 309e 18be 3a94 07be 9441 dc3d e3bb 23be
00000080: bb7e 17be 2459 02be fb2c a83d 849f 3ebe
00000090: 61a7 bf3c 0874 8b3d df2e 5dbd 7701 eabd
000000a0: 84ff 68be ce71 5cbd e046 61bd ceea 00be
000000b0: de42 e03d 12ca de3d 4730 4ebe 9fc3 933d
000000c0: d8f5 883d 9d85 e6bd faf8 d0bc 9cbb 613e
000000d0: e158 2cbe 8c3a 1b3e 443a b93d 1736 8cb9
000000e0: b8bf d53d 853b 233e 1ffe 1b3d 3f9f b93d
000000f0: 499b 013e bf71 60be 43c8 26be 0647 9b3d
00000100: d7f6 a43d 24c7 a73d bf6c 403e 13f5 073e
00000110: b170 57be 2032 4e3e c8c3 003d 3b71 033e
00000120: 499d 163c a109 53be 7470 47bc bf6f 3fbe
00000130: b23f 4f3d bd44 6ebe ad0c 863d 1fb5 92be
00000140: 2491 51be dd7e 513e e73a 03be cff7 79be
00000150: 0292 003e f27f bf3d c221 993d f4e4 593c
00000160: 70bf b33e a9c7 22be 475f b73c 3138 c0bc
00000170: ace3 84be 9e09 cd3d 150f a83d 4e7e 2fbd
00000180: 22c3 cfbd ae20 74be 7b61 cabd 2cbf b4bc
00000190: 7f20 733e 78e8 4f3e 8c0a 80be fa6b 83bd
000001a0: dc12 5cbe 77bd 213e 88e1 2cbd 5c0d 9cbe
000001b0: 438a 2c3d 0dbf 0a3e ae18 d9be b73b d33d
000001c0: dfe0 4e3d aaf8 153d 0ef5 2b3e a965 523e
000001d0: 229e cd3b e186 583e e278 12bd 14b6 433e
000001e0: 8a57 7bbd 5118 f13c f430 be3d 443e 733d
000001f0: ff07 0e3e 5357 4abd 5044 1abe 021b ba3d
00000200: a9d5 77bd b632 24be 563b cbbe 7b1e f43d
00000210: fd5c b63e 795a 30be d559 a5bd ed54 813c
00000220: 99c9 723e 461b 9f3d 769f e63e 2311 bfbc
00000230: 7120 9dbe 250f b93e dd2f c33d 99e8 c53d
00000240: cb68 44be 5e60 6f3e 48f5 543e 6b56 663c
00000250: 9c18 813e a3dd 01bd ed75 38be 2e74 70be
00000260: c3d6 2c3e 8510 8abd 81a0 84bd 9672 623e
00000270: a6d0 6fbc 2865 f3be 4bf5 743e 1eb9 b8be
00000280: 39bc 9c3d 5110 4e3d 5720 993d 44dd 1dbe
00000290: 760e 3b3e ce46 8bbd f522 a3bd 4700 7e3d
000002a0: d8ea 42bd 0497 903e 4833 bbbd e83d 6fbd
000002b0: c4e3 583d da5a 16be 912a 743d 54dd fdbd
000002c0: 4496 0fbe 4598 83be cc97 d63e 1972 b5be
000002d0: 7d02 5c3d 33fb 3f3d 7f75 a63e 799f 15be
000002e0: 1dd7 45bd 2b35 48be 1e1c e93c e7e2 ec3e
000002f0: aab4 2fbd cec8 84be b6cb 57bc 85c8 d0be
00000300: fa2a a83e f696 963e 7e6b eb3e 3971 b53e
00000310: fbd5 17bf e9f3 4b3e f112 373e bde4 c73e
00000320: 5107 d63e f42c 18bf b7c5 a4be a664 173c
00000330: ff23 243f acf3 b2be 2f4f 9ebe 041b 80bd
00000340: 7c1c 7a3d c555 34bd d66d 97be 0bf4 b3be
00000350: 65dc 92be b4e0 993e 1690 de3e 2424 9d3e
00000360: 0a36 fc3d 72cd aa3e 606c 893e 0820 c0be
00000370: c84d 10bf 1fb1 f63d 903f 9abe 69e5 0e3e
00000380: b2c8 b3bd f6e1 1ebf a5c0 563e 7cdc 993e
00000390: e33e f7bd 68a6 bc3e a8f2 7ebe 7a08 2dbe
000003a0: 67d2 9bbe ceb4 0bbf ad00 3cbd 9ee0 693c
000003b0: 495d 933d b099 bf3e 0bac 7fbd 6739 f1bc
000003c0: be7f ee3e 1827 a8bb 2df8 6ebe 37b2 60bd
000003d0: 873d 8dbc 3659 c53e 5851 eabd 6c17 c13e
000003e0: 2e38 d33e 2b43 22be eb64 933e 9fa1 cdbe
000003f0: 37d7 79be 4f2d 783e 4ea7 02be 5c87 093f
0.10016982 0.0073759016 0.10842392 0.019307243 -0.008981921 0.119088724 -0.2438392 0.1275376
-0.029167986 -0.121861786 0.057735268 -0.22398427 0.13512538 -0.09731008 0.056059193 -0.09940162
-0.29753518 0.32221067 -0.16137561 -0.21059315 -0.13645974 0.083696984 0.082011156 0.18847513
0.36310607 -0.05519527 0.15547223 -0.058376603 -0.14904094 -0.13240138 0.107546955 -0.15989642
-0.14794438 -0.12729317 0.08211704 -0.18615538 0.023395242 0.068092406 -0.053999778 -0.11426061
-0.22753721 -0.05381947 -0.054999232 -0.12589571 0.10950254 0.108783856 -0.20135604 0.07215046
0.06687516 -0.112559535 -0.025509346 0.22044224 -0.1683078 0.15159053 0.090443164 -0.0002674318
0.10436958 0.15940674 0.038084146 0.09063577 0.12656893 -0.2191839 -0.16287331 0.07581906
0.080548935 0.0819228 0.18791483 0.13277082 -0.21039082 0.20136309 0.03143671 0.12836163
0.009192773 -0.20609142 -0.012172807 -0.18694972 0.050597854 -0.23268409 0.065453865 -0.2865381
-0.20465523 0.20458551 -0.12815438 -0.24410938 0.12555698 0.093505755 0.07477142 0.013299216
0.35106993 -0.15896477 0.022384299 -0.023464294 -0.2595495 0.100116 0.08206002 -0.042845063
-0.101446405 -0.23840591 -0.09881874 -0.022063814 0.23742865 0.20303524 -0.25008047 -0.06417079
-0.2149157 0.15794931 -0.04220727 -0.30478942 0.042124044 0.13549443 -0.42401642 0.10314124
0.050507423 0.036614098 0.167927 0.20546593 0.0062749544 0.21145202 -0.035759814 0.19112426
-0.06136278 0.02943054 0.09286681 0.059385553 0.13870238 -0.049399685 -0.15065122 0.090871826
-0.060506497 -0.1603497 -0.39693707 0.11919876 0.3561782 -0.17222013 -0.08073775 0.015787566
0.23709716 0.07768874 0.45043534 -0.023323601 -0.30688813 0.36144367 0.095306136 0.09663505
-0.191806 0.23376605 0.20796692 0.01405869 0.25214088 -0.03170551 -0.18013735 -0.23481819
0.168788 -0.06741432 -0.06475926 0.22114024 -0.014637148 -0.47538114 0.23921697 -0.36078733
0.07653088 0.05030853 0.074768715 -0.15416437 0.18267235 -0.06800614 -0.07965652 0.062011983
-0.047587246 0.28240216 -0.091406405 -0.058408648 0.05295159 -0.14683095 0.059610907 -0.123957306
-0.14022166 -0.2570211 0.41912687 -0.35438612 0.05371331 0.04687042 0.32511517 -0.14611615
-0.04830085 -0.19551532 0.02845579 0.46266863 -0.042896904 -0.25934452 -0.013171127 -0.40777984
0.3284529 0.2941205 0.45980448 0.35437945 -0.59310883 0.19917263 0.1787832 0.390417
0.41802457 -0.59443593 -0.32182094 0.009240305 0.64117426 -0.34951532 -0.30919787 -0.06255153
0.06106232 -0.04402711 -0.29575986 -0.35147128 -0.28683773 0.30054247 0.43469304 0.30691636
0.12314995 0.33359867 0.26840496 -0.37524438 -0.56368685 0.12045502 -0.3012662 0.139547
-0.08778514 -0.6206354 0.20971926 0.3005103 -0.120725416 0.36845708 -0.24897254 -0.16897765
-0.30433962 -0.5457276 -0.045899082 0.014274744 0.07195527 0.37421942 -0.062419932 -0.029446317
0.46581835 -0.0051316135 -0.23336859 -0.05485746 -0.017241253 0.38544625 -0.11441296 0.37713182
0.412538 -0.15845935 0.28787932 -0.4016237 -0.24398504 0.24236034 -0.12759134 0.53722167

lstm.bias_ih_l0 f4 [256]
00000000: d04b 5b3d 307d f73c 4dbe dabe 8a68 753e
00000010: eaea bebe 2e09 f4be e32c 61be 3971 7abe
00000020: 9188 063e 8a8f b83d 6d08 41bd ba82 d5bd
00000030: e311 02bd 936b f5be de4e 563e aee6 d53d
00000040: 60ac 393d 54aa c4be e80b d3be e118 f8be
00000050: cd5d 3abe d0c6 17bf c63f 10bf 0b2e 5d3e
00000060: 6154 6a3d e6b9 91be c7de 90be 9a9a 11bf
00000070: 7223 edbe 372d eebd eb72 13be 581a 4ebd
00000080: 5083 90be 31c7 a0be 239b b1be 927f e0be
00000090: c25d d5bd 20a5 09bf b932 1c3d 1651 153d
000000a0: 1319 89be c4e9 f6bd 7881 a3be e8f5 52be
000000b0: f723 34be 1f96 dfbe c689 ca3e a94c d03d
000000c0: 0043 b83d b5c4 aebd f550 27be eeb0 81bd
000000d0: e696 e2be 7f1a 4ebe 4f5b d5bd 4bac d3be
000000e0: c21e bdbc 38ee 2dbf 4938 0cbf d3e2 26be
000000f0: 2a81 97bd 2c5d 7dbe 2cbf 23bf 32d2 92be
00000100: b359 70bd e437 913d 023b 00be 6e12 313e
00000110: 9c22 b8be 8c54 a2be f02f 3bbe 9b09 42be
00000120: 6a9c 423d da03 833b ff09 ba3d 91be d5bd
00000130: 7b2f 37bd 2355 a9be 078b d13d cdd2 0fbe
00000140: 9f49 02be 196c 49be 9851 b6be 549c c4be
00000150: 3084 24bd 9091 b2be 1c14 00bf b672 3abd
00000160: 5722 2e3e 7c25 9bbe 4916 1c3d 3b21 7bbe
00000170: e52a aebe 5ebd a6be be6f 813c cd17 ffbd
00000180: 0900 3dbe e0d9 9abe cb01 60bf 17b5 06bf
00000190: 0d7f 44bc e94f d6be 9e85 e63d 995f 4abd
000001a0: aa77 95bd bc83 a8bd f4fa 6dbe 62cf 3ebd
000001b0: 31f0 1fbd 6ba0 07bf c049 81bd f8e5 eebd
000001c0: e2e6 e53c 87ba 15bf 3ec6 d03b 1c4e 843e
000001d0: b63a b7be 4130 03be 74e0 a5bd f36f 6ebe
000001e0: 80a9 1fbe 22ff 06bf bc39 8abe 4c95 3dbe
000001f0: 7d96 a9be efe9 b1be b6b8 8dbe d60f dcbe
00000200: 55c6 bfbc 760a 433e 009d 0c3e 7faa b33c
00000210: 0711 6cbd 2bab 513e 8a48 04bd 30cf 33bd
00000220: 0c8e f43d 19f7 173d 53a3 86be d839 0d3e
00000230: 350e 423e fc2d 48bc 9ad7 6ebe b4b2 cf3d
00000240: a967 5f3d a733 d63d 01f8 15be 3f14 98bd
00000250: 3945 103d 60f8 bc3d b405 323e 7d52 053d
00000260: c50b ebbd 7299 cc3d db61 463e c8d2 e8bd
00000270: ac83 14be 4ee4 e33d 53fa 43be 0e72 443d
00000280: 5bb6 1ebe 00d5 c4bc 7407 113e 4014 6a3d
00000290: a08e 7ebc 99da 9a3d 3e10 763d 5d80 cfbd
000002a0: 9fe8 d03a 8922 11be 927b 4cbd 0c25 593c
000002b0: 8512 c93c 5dea f63d 2bb9 d1bd 989c 05be
000002c0: 8eda 883d 9587 db3d 700f c7bd 6171 f33d
000002d0: 9344 663d d17d ef3d 9f23 c93d 30b4 54bc
000002e0: d5c0 1bbd c2e1 1d3d dcb9 b3bc 8389 03bd
000002f0: d0d7 413d b37f bd3d ccd8 523d a0ed 1b3e
00000300: 1575 90be c4da 58bd e4ff eebe 6c5f 34be
00000310: ac28 59be 9442 71be 4bff b13b 9cf8 b6be
00000320: 1058 59be 6648 4bbe 0a7a 233d 85e9 84be
00000330: b15a 0b3d 05fb bebe 49bc c4bd 7d01 643d
00000340: 3114 123d 6b61 d4bd d247 bfbe 3a89 22bf
00000350: d14d 02be c94a 0abf c64c 3abe 9210 7a3d
00000360: 9539 2d3e 1cd2 06be a9af 52be 6e6c 9fbe
00000370: 33ee 02bf 98f3 d9ba d771 85bd 755c 2cbd
00000380: 0f7d 2fbe ffee 9cbe e692 eabe 56fe 773c
00000390: a947 cdbc 3dc1 b8be 6e6d cd3d b340 733d
000003a0: 038a 8dbe 5ae0 a0bc 9369 5abe ff65 9f3d
000003b0: 73a2 39be f2ef aebe d060 8b3e 9cd1 253d
000003c0: 55e8 213e 53e3 1fbe af9d 1cbe 7bcf 99bd
000003d0: 8b35 4cbe 8c89 1abd 5aea 5abe 0be0 c9be
000003e0: 18b7 93be 8c56 d8be 77a7 cfbe 6c63 08be
000003f0: a708 63be 9ae0 70bd dfd1 00bf 00d6 42be
0.053539097 0.030211061 -0.42723313 0.2396566 -0.372886 -0.47663254 -0.21989779 -0.24457254
0.13138033 0.09011753 -0.047127176 -0.10425325 -0.03175534 -0.47933635 0.20928523 0.10444389
0.045330405 -0.384112 -0.4122002 -0.4845648 -0.18199845 -0.5928774 -0.5634731 0.21599595
0.057209376 -0.28462142 -0.28294966 -0.5687653 -0.46316105 -0.11629718 -0.14399306 -0.050318092
-0.28225183 -0.3140197 -0.34688672 -0.43847328 -0.104182735 -0.53767586 0.03813431 0.036454283
-0.26776943 -0.12056306 -0.31934714 -0.20601618 -0.17591844 -0.4366922 0.39558238 0.10170872
0.08997154 -0.08533613 -0.16339476 -0.06332575 -0.4425575 -0.20127295 -0.10417806 -0.41342387
-0.023085956 -0.6794162 -0.54773384 -0.16297464 -0.07397683 -0.24742573 -0.6396358 -0.2867599
-0.058679294 0.070907384 -0.1252251 0.17292187 -0.35963905 -0.3170513 -0.18280005 -0.18948977
0.04751245 0.003998262 0.09083938 -0.10436738 -0.044723015 -0.33072767 0.102315955 -0.14045258
-0.12723397 -0.19670142 -0.35609126 -0.3840052 -0.040165126 -0.3487668 -0.50030684 -0.045519553
0.17005287 -0.30302036 0.03810719 -0.24524395 -0.340171 -0.3256635 0.015800353 -0.124557115
-0.18457045 -0.3024435 -0.87502736 -0.5262007 -0.011993182 -0.41857842 0.11255954 -0.049407575
-0.07298215 -0.08228251 -0.23240262 -0.046584494 -0.039047424 -0.52979153 -0.06312895 -0.11664957
0.028064195 -0.58487743 0.0063712886 0.25840843 -0.3578698 -0.12811376 -0.08099452 -0.23284893
-0.15592003 -0.5273305 -0.26997173 -0.18513983 -0.33122626 -0.3474879 -0.27679986 -0.42980832
-0.023410002 0.1904696 0.13731766 0.021931885 -0.057633426 0.20475452 -0.03229574 -0.04389876
0.11941156 0.037100885 -0.26296481 0.13791597 0.18950732 -0.012217995 -0.23324433 0.10141507
0.054542217 0.10459071 -0.14645387 -0.07425737 0.035222266 0.09227061 0.17384988 0.03254937
-0.11476854 0.09990205 0.19373266 -0.11368328 -0.14503354 0.1112753 -0.1913846 0.047960334
-0.1549925 -0.024027348 0.14163 0.05714822 -0.015536934 0.075612254 0.060074084 -0.10131905
0.0015938467 -0.1417333 -0.049922533 0.013253462 0.024544964 0.1205642 -0.10240396 -0.13048017
0.06682311 0.107192196 -0.09719741 0.1188686 0.05621774 0.116939195 0.09821247 -0.012982413
-0.038025696 0.038545378 -0.02193921 -0.032113563 0.047324955 0.09252872 0.051476285 0.15227365
-0.28214327 -0.052943006 -0.46679604 -0.17614526 -0.21206921 -0.23560554 0.0054320446 -0.3573655
-0.21225 -0.19851837 0.039911307 -0.2595941 0.034022037 -0.37300888 -0.09606225 0.05566548
0.035663787 -0.103701435 -0.37359482 -0.6349064 -0.12724997 -0.54020363 -0.18193349 0.06105096
0.16916497 -0.13166088 -0.20574822 -0.31137413 -0.51144713 -0.0016628383 -0.06515854 -0.04208036
-0.1713755 -0.3065109 -0.458152 0.015136322 -0.025058584 -0.3608493 0.10030638 0.059387874
-0.27644357 -0.01963823 -0.21329336 0.07783126 -0.18128376 -0.3416744 0.272223 0.040483102
0.15811284 -0.15614061 -0.15294527 -0.07510277 -0.199423 -0.03772883 -0.2137846 -0.39428744
-0.28850627 -0.4225353 -0.40557453 -0.13319176 -0.2217127 -0.058807947 -0.5032024 -0.19026947

lstm.bias_hh_l0 f4 [256]
00000000: aa02 963d ba30 03bd d8f4 abbe bb59 a03d
00000010: c7e5 7cbe 5582 89be 076d 5dbe 5f3d cabe
00000020: 8398 68bc 1e43 9c3d 170c 26bd 7802 e9bd
00000030: 036b bd3d 7bf9 08bf eae9 a33e 182f c63d
00000040: c4ee db3b 3a47 a6be f1ff 07bf f668 1bbf
00000050: 23f9 26be cc61 1dbf fe07 d8be 39af 373e
00000060: 69fe 693d c1ab 92be 6ad7 22be f93d 07bf
00000070: 2f6d f8be 134c 9b3b d1db 68be a8cc 1c3d
00000080: dfae 9bbe c1ea cdbe b383 e8be dcf0 c4be
00000090: 8e0b fdbd 2132 05bf 0832 833d c35b 363e
000000a0: b51e abbe c32a 47be ca6d 96be 98de 18be
000000b0: 83d4 65be 1fad c5be 9aaa 5f3e 4142 b83d
000000c0: c82a 72bc 50b9 803d ccc1 c0bc ae7d d1bd
000000d0: 0d36 7abe b098 94be 6d49 37be ec10 dabe
000000e0: edbb 00be 5b0c 00bf 5687 c5be fbca a1bd
000000f0: d7d0 c0bd f5f3 bfbc b696 4fbf f001 8dbe
00000100: e773 e0bd c1f2 1d3d 57a9 b9be 412c 2f3e
00000110: 8f93 88be 92f2 18be 0234 bebe 48c4 73be
00000120: 42df d03d 0360 413e c6e6 91bc c8d0 3fbe
00000130: 8bf8 6f3a 637e c4be 46af 8c3d 9b1a f9bd
00000140: 8497 19be 4a14 a3be aabc 87be 104d c9be
00000150: ca34 9ebc 0e27 9ebe 914f a8be 5b2d 953d
00000160: 8ee7 043e 8bd1 a6be ff49 cdbd 1a3d 80be
00000170: fabf bdbe eb96 69be 38aa 18bd cbe3 c5bd
00000180: ab4b 0abe 3e3d 80be 8564 2dbf 74a3 24bf
00000190: 33a4 b53b fd7f c8be 7ee8 733e cb42 07be
000001a0: 308d 95bd 8682 a03d f9bd d9be 2b98 33be
000001b0: 5c7c 243d e5b3 f2be c238 d83d 64af 3dbe
000001c0: 1fda a0bc 4bdf 2cbf 3436 7fbd 651d 993d
000001d0: 7a14 5bbe a3d7 0bbe 0512 093d f10d 8dbe
000001e0: 4351 a9be 6443 18bf 48f0 4ebe 8602 3fbe
000001f0: f418 a7be b648 26be f6ff dcbe c7d6 07bf
00000200: 6427 dc3d 7b48 753e 2f9b 3a3e 973c 3f3d
00000210: 0193 f5bd 6b11 b53d 404d 3abd 9c99 143e
00000220: 66f1 0c3d 8d1c a0bd 4618 16be 58b9 74bc
00000230: 8fb1 353e 93e0 84bd ccc3 7ebe b290 4b3d
00000240: 70f5 023d 784f 89bd 5a29 02be 1b3a 3c3d
00000250: c687 0cbd 1c0b a93d 18dc 1f3e 6c05 d0bd
00000260: fb00 d23c a819 483e d8ff 703e 8861 ecbd
00000270: 8f91 93bb 6bba 1e3d d7d9 8bbe d5dd 5d3e
00000280: bd57 7dbe b8cd 23be 1754 6fbd 447d 4f3d
00000290: 1760 46be 86a4 9c3c 3c4d d83d f9e8 143d
000002a0: 3e8a 97bc eea9 aabd 7a89 363d 5669 da3d
000002b0: be8b 5d3e 4881 963b 9bb3 61be c3e3 82bd
000002c0: 85df 0d3e 8160 b0bd ef5e 2ebe 6f83 273e
000002d0: d8db f93b bf28 c93d c9a5 373e 49c8 f63d
000002e0: f3b0 2cbd ff03 48bd df5e 1b3e b7ba 82bd
000002f0: b4c1 0dbe 40b1 523d fbe7 b3bc f01d 0c3e
00000300: 682c 7fbe 7b27 e1bd a55c b1be e55a 80be
00000310: 14ec bcbe 7a82 4cbe b6f3 a4bd 022c 3fbe
00000320: cf9a d1be 4a86 62be f75e 4d3c c4c5 4abe
00000330: 9229 023d 6ab4 f4be 06ae 23be e68b bb3d
00000340: 9f19 ccbd fe36 5cbe aad6 06bf 5702 dcbe
00000350: 33b7 79be 2714 0bbf 213d 8bbd f37b a03d
00000360: 3271 00bd 669f 80be dcee 5bbe 3d6d 75be
00000370: 4f76 c6be 1102 bc3d 3dbf 54bd 0d42 a6bd
00000380: 0e04 42be cd02 ecbe 1930 b3be 9509 47bd
00000390: 24d0 6ebd 0722 17bf 0075 b63d 33d9 6b3c
000003a0: da6f 71be 11d1 dbbc e512 babe 1eca ccbd
000003b0: 3345 f4bd f4e9 b2be d976 a33e e0cb 1fbe
000003c0: b9fd b2bc 8094 23be 6543 8dbe d694 a3bd
000003d0: ac03 88be d95f 1d3d 0583 a9bd b931 e8be
000003e0: f720 a2be 66ce d9be 5a3b d6be 3d92 b1bc
000003f0: 6ca2 7cbe 5306 58bd 0a56 f7be 55d4 5abe
0.07324727 -0.03202889 -0.33585238 0.07829615 -0.24697028 -0.26857248 -0.21623622 -0.39499947
-0.014196518 0.07629989 -0.040538874 -0.11377424 0.092489265 -0.53505677 0.320144 0.09676951
0.0067118127 -0.32476217 -0.5312491 -0.6070703 -0.16305976 -0.6147735 -0.42193598 0.17937936
0.05712739 -0.28646663 -0.15902486 -0.5282894 -0.485208 0.0047392934 -0.22740103 0.038281113
-0.30406854 -0.40218166 -0.4541298 -0.3846501 -0.123557195 -0.52029616 0.06406027 0.17808442
-0.33421865 -0.19449906 -0.29380637 -0.14928663 -0.22444348 -0.38608643 0.21842423 0.08997012
-0.014780708 0.062853456 -0.02352991 -0.102290496 -0.24434681 -0.2902274 -0.17899103 -0.42591035
-0.12571688 -0.5001885 -0.38579816 -0.079000436 -0.09414833 -0.023431757 -0.8108934 -0.2754054
-0.109596066 0.038561586 -0.3626201 0.17106725 -0.26675078 -0.14936283 -0.37149054 -0.23805344
0.10198833 0.18884282 -0.017810237 -0.18731987 0.0009154162 -0.38377675 0.06869368 -0.12163278
-0.14999205 -0.31851417 -0.26511127 -0.39316607 -0.019312281 -0.3088917 -0.32873204 0.072840415
0.12978956 -0.32581744 -0.10023879 -0.25046617 -0.3706053 -0.22811477 -0.03727171 -0.09662589
-0.13505428 -0.25046724 -0.67731506 -0.6431191 0.0055432557 -0.39160147 0.23819157 -0.13209073
-0.0730232 0.07837395 -0.4252775 -0.17538516 0.04015766 -0.47402874 0.10557701 -0.18523937
-0.019635258 -0.6752822 -0.06230755 0.0747631 -0.2139453 -0.13656478 0.03346445 -0.275497
-0.3306981 -0.5947783 -0.20208848 -0.18653306 -0.32636225 -0.16238675 -0.43164033 -0.530621
0.10749701 0.2395343 0.1822326 0.046688642 -0.119909294 0.08841213 -0.045483828 0.14511722
0.034409903 -0.07817946 -0.14657697 -0.0149367675 0.17743514 -0.06488147 -0.24879378 0.04969854
0.03197235 -0.067046106 -0.12711087 0.04595385 -0.03430917 0.08254072 0.15611303 -0.10157284
0.025635233 0.19541037 0.23535097 -0.1154204 -0.004503436 0.038752 -0.27314636 0.21666653
-0.24740501 -0.15996444 -0.058429804 0.050656572 -0.19372593 0.01912142 0.10561606 0.036354993
-0.018498536 -0.08333193 0.0445647 0.106646225 0.21635339 0.0045930482 -0.2204117 -0.06391098
0.13854797 -0.08612157 -0.17028402 0.16358732 0.0076250844 0.09822225 0.17934336 0.1204992
-0.04216094 -0.048831936 0.15172909 -0.06383269 -0.13843423 0.05143857 -0.021961203 0.13683295
-0.24919283 -0.109938584 -0.34640995 -0.25069347 -0.36898863 -0.19971648 -0.08054297 -0.18669131
-0.40938422 -0.2212154 0.012534848 -0.19802004 0.031777926 -0.47793895 -0.15984353 0.09157543
-0.09965824 -0.21505353 -0.526713 -0.42970535 -0.24386291 -0.54327625 -0.06798769 0.078361414
-0.03135795 -0.2512161 -0.21477836 -0.23967452 -0.38762137 0.09180082 -0.05194019 -0.08118067
-0.18946859 -0.46095887 -0.34997633 -0.048593123 -0.058303967 -0.59036297 0.08909035 0.014395046
-0.23577824 -0.026833089 -0.3634254 -0.09999488 -0.11927261 -0.34944117 0.3192661 -0.15605116
-0.0218495 -0.15974617 -0.2759048 -0.079873726 -0.265653 0.038421486 -0.08276943 -0.45350435
-0.31665775 -0.42540282 -0.41842157 -0.021676177 -0.24671334 -0.052740406 -0.4830783 -0.2137006

lstm.weight_ih_l1 f4 [256, 64]
00000000: 6c02 9abe df5f a4be fd29 e0bd 2ac6 213e
00000010: b748 b0bd eebe 27bf 6ded 85be 077e e0bc
00000020: 3697 cbbb 0083 cb3c 56d4 d53e d853 8dbc
00000030: a96c f8bd ca93 893d eae7 57be 65b0 18be
00000040: d908 d13e 6e1f bcbd c538 0f3e e665 e33d
00000050: 3b8e 2a3e 2c2e 08be c0c5 1fbf 4cd1 dabd
00000060: e111 5dbe 3f95 5b3d 1ce6 9dbc 5e44 033e
00000070: 5e0a 193e 692b 073d ea9b bf3e 77c3 5ebc
00000080: d727 a63d c0db 973b da12 5f3e 0227 ccbe
00000090: b66c f93d a1ab 39bd 6cd9 833e 1c2e b03d
000000a0: 0ceb 2b3e ed93 543d da27 bf3e e662 16bd
000000b0: 2203 48be c3c7 653e 051c f23d 7140 42be
000000c0: 0bd5 78be fb0f 5c3e eae3 cebe 8580 b7be
000000d0: 8bef 0fbc 1f6b 203e dfd2 823e 7b1e ccbe
000000e0: 2552 9cbe 8530 a1bd 8ba5 873d 56a3 a5bd
000000f0: 6c81 8c3d d893 1a3e 9c7b 933c e2aa ba3d
00000100: 6608 33be d8de ecbe 7152 c8bd e2a0 d73e
00000110: 0091 983d 8f8f 093d 7a50 02bf ceec e6bd
00000120: 868d e63d 8bce be3d 7882 2b3f 3003 563d
00000130: 3ecf a5be 561e 253e 4be5 823e 6a5b 3abe
00000140: 5930 95be ad7d 43be e346 293d 5515 6c3e
00000150: 8ca0 013f 4438 84bd f433 cb3d e207 60bd
00000160: 7c9a 9b3e e6d8 b93d 9d85 ff3d d30e 9c3d
00000170: 21ec dc3c f337 5ebe 7251 883e 51b6 7cbe
00000180: 9a98 8abe 187d 68bd 2127 ae3d c221 4abd
00000190: 6835 a33d 4723 f03d db9d 15be 43a7 1d3d
000001a0: a86c 203e d939 f83d 1fad 663e a2d9 0abe
000001b0: fa3b 6f3e e22e 02be 3826 a93d bddc b7bb
000001c0: d412 91be a038 7fbd b8b8 ab3e 4703 d4be
000001d0: a120 dfbd 9e8a b53d 7d1a 6a3e 0950 a4bd
000001e0: 1c8b 16bd 183e ccbd dc08 903e 6c89 663e
000001f0: 542c c53d 2524 93be a8fc 91bc 9d7b bebd
00000200: 1cba c8be 1cc2 35be ac79 8e3b aa67 d1bd
00000210: 4c87 2c3e 1149 d7be 1049 44be 0261 f83d
00000220: 1d82 ba3c 1492 763c 2f2d 2f3e a065 60be
00000230: b771 88be fcf2 0fbe 3b06 c3be 8809 7a3e
00000240: 53c1 44bd cc91 debb b8bd 033e b377 593d
00000250: d016 8abb 6cae 1dbe 7089 d2be c8f1 c4be
00000260: 5d2f 04bf ad6d 8b3e 5813 94bd 97ca 2f3b
00000270: 0312 5ebd 2afd 92be a5ad c33e f3b6 e9bd
00000280: 62be b23d 5bda 1bbe 4782 1a3d ad22 cebe
00000290: fc21 c13c 9cad 853c 8347 123f 4d16 24be
000002a0: 6e06 2d3d 3f7c aebd 499b 953e 1930 a63d
000002b0: bb02 8bbe 43be f13b da8c 9b3e 5e8e 3cbd
000002c0: eb54 95be a6b6 09bc 1bff 64bd ea89 d1be
000002d0: 3f6c 653e 0504 7b3e c10b bc3e a848 33be
000002e0: b731 81be 72cd 09bd 1313 8d3d a41d 93bc
000002f0: 3604 613b bea9 89be c69d 6b3d b5b9 00be
00000300: 4ce7 83be 698f 66bd a276 4abe 382d ab3e
00000310: 3715 f8bd 1ab4 893d c6da 70be a006 cbbd
00000320: 1b42 143e a53e 683a 98d0 7d3e 6dbc 8cbd
00000330: 5320 d1be 0653 253e 0b5b 513c 9829 bcbd
00000340: ada6 8fbe 0647 56be 73ae 1ebb df70 ae3d
00000350: 63d2 e0bc b8b7 24be 5e18 b93d d1fb 573e
00000360: 10e9 073f 10c9 fa3d dab3 be3d 1e4f fd3d
00000370: 5e16 5abd f273 86be 930c 2f3e bfc5 f9be
00000380: ee0b 6abe 6c14 0fbe b2e6 a13c 1194 bc3e
00000390: 2a07 553e ecd4 c63d c9c1 b0be 30d5 40bd
000003a0: 1588 2d3e 1214 ee3c c621 ffbc fc2e 24bd
000003b0: 3e77 1ebe 6531 1b3e 699d fe3d 3a2a b33d
000003c0: 3973 1cbe 8a21 9c3d 452f bd3e 73c1 62be
000003d0: 911c da3c 6f6f 853c 6379 20bb 4558 2bbe
000003e0: c5ab 96bd 2656 b0bd 94ae b6bb 67a3 473e
000003f0: affb 3e3d d323 e9bd c140 48bd ac57 62be
-0.30079973 -0.32104394 -0.10945509 0.1579825 -0.08607619 -0.6552571 -0.26157704 -0.027403845
-0.006213094 0.02484274 0.41763562 -0.017251894 -0.121301 0.06717642 -0.21084562 -0.14911039
0.40827063 -0.09185682 0.139865 0.1110342 0.16655819 -0.13298863 -0.6241112 -0.106844515
-0.21588852 0.05360913 -0.019274764 0.12819049 0.14945361 0.033000384 0.3742364 -0.013596407
0.081130676 0.0046343505 0.21784535 -0.3987351 0.12178938 -0.045329694 0.25751817 0.08602545
0.16788882 0.051898886 0.37335092 -0.03671541 -0.19532445 0.22439484 0.118217506 -0.18969895
-0.2430002 0.21490471 -0.4040826 -0.3584024 -0.008785139 0.15665863 0.25551507 -0.39867005
-0.3053142 -0.078705825 0.06623372 -0.080877945 0.06860623 0.1509546 0.018003277 0.091146246
-0.17483672 -0.46263766 -0.097813495 0.4211493 0.074495316 0.033584174 -0.5090405 -0.11275636
0.11257462 0.09316739 0.66995955 0.052249134 -0.32384676 0.16124853 0.25565562 -0.18198934
-0.2913845 -0.1909091 0.04132737 0.23055013 0.506356 -0.06456044 0.09922019 -0.054695018
0.303913 0.09074573 0.124766566 0.07620015 0.026968064 -0.2170103 0.26624638 -0.24678923
-0.2706955 -0.056759924 0.08503557 -0.0493486 0.07969171 0.117254786 -0.14610998 0.03848959
0.15666449 0.121204086 0.22526978 -0.13559583 0.23362723 -0.12713197 0.08259243 -0.005611031
-0.28334677 -0.06230986 0.33539367 -0.4140875 -0.10894895 0.0886433 0.22861667 -0.08023078
-0.03675376 -0.09972781 0.2813176 0.2251336 0.096275955 -0.28738514 -0.017820671 -0.09300921
-0.3920449 -0.17749828 0.0043480005 -0.102248505 0.16848487 -0.42047933 -0.19168496 0.12127878
0.022767121 0.015049476 0.1710708 -0.21913767 -0.26649258 -0.14057535 -0.3809069 0.24417698
-0.04803593 -0.0067922827 0.1286534 0.05309267 -0.0042141452 -0.15398568 -0.41120481 -0.38465714
-0.5163477 0.27232113 -0.07230252 0.0026823634 -0.054216396 -0.28708774 0.38218418 -0.11411848
0.08727719 -0.15220015 0.0377219 -0.4026083 0.023575775 0.016318135 0.5714037 -0.16024132
0.04224246 -0.08519792 0.29220036 0.08114643 -0.2715052 0.0073774173 0.303809 -0.04603421
-0.2916635 -0.008405363 -0.05590735 -0.40925533 0.22404574 0.24513252 0.36727718 -0.17508185
-0.25233242 -0.033643194 0.06888404 -0.01795847 0.0034334785 -0.26887316 0.05752351 -0.12570842
-0.25762403 -0.05628911 -0.19771817 0.33432937 -0.121134214 0.06723805 -0.23520955 -0.09913373
0.14478342 0.00088594324 0.24786603 -0.06871877 -0.40844974 0.16144952 0.012778054 -0.09187621
-0.2805685 -0.20925531 -0.0024212867 0.08517622 -0.02744407 -0.16085708 0.09037851 0.21092154
0.5309 0.12245381 0.09311648 0.12368606 -0.053243987 -0.26260334 0.1709464 -0.4878368
-0.22856113 -0.13972634 0.019763324 0.36831716 0.20803514 0.097085804 -0.34522846 -0.04707831
0.16946442 0.029062305 -0.031144034 -0.04008387 -0.15475175 0.15155561 0.12432367 0.087482885
-0.15278329 0.076235846 0.36950126 -0.22144108 0.02662495 0.016288487 -0.0024486415 -0.16732891
-0.07356981 -0.086101815 -0.0055750106 0.19495927 0.046626743 -0.11383786 -0.04888988 -0.22103757

lstm.weight_hh_l1 f4 [256, 64]
00000000: fc2b a4be be5f 2dbd d611 5bbe 0de2 f1bd
00000010: 74b1 8c3d a567 473d 59c6 e0bd afb2 de3d
00000020: 7557 de3d 4f9a a93c 3439 b3bd d5eb 3e3e
00000030: e644 8ebd 3e63 77bc e3f4 6a3e 7496 603d
00000040: 38c6 04be b4d3 96bd 878c 84bd 4b33 7abd
00000050: 0541 973c 3bf6 afbd ff51 f2bc 17e4 98bd
00000060: c9d4 e4bc af13 a53c 2800 e03d d1a7 bf3c
00000070: 55de 4dbd 3b14 fa3d 0964 6ebe e84a 8dbd
00000080: ecc2 e4bc 60a6 733e 991d ae3d d98f 953e
00000090: aa2e d3bd 429e 2e3e ce8e 3fbe b18f 8e3a
000000a0: 3c92 6e3c b82c cdbd 4e85 e0bd cfa6 3a3d
000000b0: e88e c0bd ebe7 393e 35ab 86be 20ff 253e
000000c0: 5459 a03d dbe2 3bbc d7c1 273e c8ff 81bc
000000d0: 9813 5f3e 0005 fa3d 2e1a 70be 1bea 1d3a
000000e0: 04b4 133c 972f 4f3e 0240 a53d d30e 5f3e
000000f0: e7c8 173e f136 02be 113d a1bd a87a c73d
00000100: 85c3 0bbe 7677 c13d 4e46 b63d b73f 55bd
00000110: 0448 60bc 9459 d8bd 5bdd 25be 28bb 82bc
00000120: 837d 823d 99f5 18bc df16 973d 3745 913e
00000130: 1981 cf3e 5d90 0b3e fc1d c23c 8b7c 4bbc
00000140: b3a3 aa3e 6459 883e 82c7 2d3c b18a 5c3b
00000150: 7c2a 2d3e c529 7abe 8c36 7f3e 123b 863d
00000160: d412 8cbe 8dc0 893d f0fd 4cbc 7ecd 0f3e
00000170: c414 57bb 37c1 593e f1a0 6ebd e68f 8a3e
00000180: 4391 5dbe 8656 3d3e e98e c6bd e5b4 4fbe
00000190: 1369 c8bd 26e7 d2bd aebe 2fbe b16d 22be
000001a0: bc68 053e 4abb cfbc 15a3 5cbd f26f 4b3e
000001b0: 5bd2 e6bd 96d3 ab3e 478b 8f3e 044a 463e
000001c0: 658f 77bc 2dfd 8a3d 5c4c 503c 140a 303e
000001d0: 0e4f 5bbd a5e4 b53d 4551 c93c ca72 4b3e
000001e0: 457c a93e db6c 6ebe 8591 823e e9b2 56bd
000001f0: f2f4 843e 703e 52be e70b 0abe 051f c8bd
00000200: 5c3d 61be 5bcb ea3c 5b43 a8bd 776e 9c3d
00000210: 2b4a 243d 7ce0 d1bd 1f20 92bd ee03 70bd
00000220: 5e6f 85bd 690a d93d 4433 20bd d080 213e
00000230: 35ea 56be 16cf f73d d772 583c f16f 04bd
00000240: 77d4 69be c5ae 57be 6bde 273d 07ea 263e
00000250: 6a82 17bd 061b 9ebd 56b8 e5bc 8a0e 36bd
00000260: 8858 763e b279 3e3e 0090 7b3c 87e4 5fbc
00000270: 399c 6d3e 711c 493e f8bc 6cbc d9c7 4ebe
00000280: 31c5 4a3e ba2f 823e 6c7d 8dbe 5aca 0b3e
00000290: a568 4dbe fdb8 ec3c e4eb cabd f3eb 7ebe
000002a0: 39d8 063e b240 0c3d f60c 6abe 08c2 f239
000002b0: 9450 d0bd d9cc c33d df79 6cbe 69da fb3c
000002c0: df03 18bd 3e06 343e e0c1 6ebd 9d70 56be
000002d0: 98b8 3f3e 4169 81bd 61b2 84be 5b6e 0b3e
000002e0: c4e9 fabc 74da 283e 2d84 38bd cdd6 dcbc
000002f0: 507d b0bd 3734 9bbd 2c77 d93e 8820 2dbe
00000300: 4f71 49be f0fc d0bd 7ff1 d2be c73d c23d
00000310: 7eba 903d 18b1 abbe 0c66 303d 72f6 273e
00000320: b0b8 44be 7381 0fbe 57d8 56be cfee 08bd
00000330: 873f 883e c045 bebc 61dd a2bd c05d 733e
00000340: 63bc b23e 4663 6ebd 8972 9bbe 0ad2 d63d
00000350: 464f c6bd 84ff 9dbe 6cb4 98bd b395 d33d
00000360: cc34 bebd e2ab 263e 154a 1dbe 9480 dcbb
00000370: a5e1 9fbd c0bf 1b3d 38b4 443d 5d9a 153e
00000380: 17b2 a53c 572a 063e 05bc ea3d aa97 d4be
00000390: 096d f1bd cbb6 5bbc 2696 31be d5dc 22be
000003a0: 298d 943e 30b0 92be 806e 47be f0bd a1bd
000003b0: 58da 1fbe 4641 cc3e dd4e 30be ead2 20bd
000003c0: c78f c9be 478a 6dbe f542 1a3e 2784 17be
000003d0: 8344 833e cc2f 3a3d 58d0 a5be 5199 c33e
000003e0: 8181 2e3d 7ff3 c1be 91e1 943c 3308 0f3e
000003f0: eb55 2c3e 6323 babe 2d7c 01be 2bd6 f23d
-0.32064807 -0.042327635 -0.21393523 -0.11810694 0.06869784 0.048682828 -0.10975332 0.10873925
0.10856525 0.020703463 -0.08751145 0.1864465 -0.06946735 -0.015099345 0.2294498 0.054830983
-0.1296624 -0.07364598 -0.06472116 -0.061084073 0.01846362 -0.085918866 -0.029580114 -0.0746538
-0.027933495 0.020150987 0.1093753 0.02339545 -0.05026086 0.1221089 -0.23280348 -0.06899053
-0.027924977 0.23793936 0.08501739 0.2921131 -0.10311635 0.17052558 -0.1870682 0.0010876564
0.014561232 -0.10018295 -0.10962926 0.045569237 -0.09402257 0.18154876 -0.26302496 0.16210604
0.07829538 -0.011467661 0.16382538 -0.015869036 0.21784818 0.12207985 -0.23447487 0.0006023959
0.009015087 0.20232998 0.08068849 0.21782999 0.14822732 -0.12716271 -0.078729756 0.09740192
-0.13648804 0.094466135 0.08900128 -0.052062716 -0.013689045 -0.10563961 -0.16197722 -0.015958384
0.06371596 -0.009335899 0.07377409 0.2837312 0.4052818 0.13629289 0.023695938 -0.01241983
0.33328018 0.266307 0.010606648 0.0033652002 0.16910738 -0.24429996 0.24923152 0.065542355
-0.27358115 0.06726179 -0.012511715 0.14043233 -0.0032818774 0.21265112 -0.058258954 0.2706291
-0.21637444 0.18490037 -0.09695227 -0.2028385 -0.09785666 -0.10297994 -0.17162582 -0.15862156
0.13028234 -0.025357861 -0.053866465 0.19866922 -0.11270591 0.33559865 0.28035948 0.19364172
-0.0151098715 0.06786571 0.012713518 0.17191344 -0.05354219 0.08881501 0.024574885 0.19868007
0.33102623 -0.23283713 0.25501648 -0.052416716 0.25968128 -0.2053163 -0.13481103 -0.097715415
-0.21996063 0.02866142 -0.08215972 0.07638257 0.040109795 -0.10247895 -0.07135033 -0.058597498
-0.06515382 0.10597689 -0.03911139 0.15771794 -0.2098778 0.121000454 0.013210974 -0.03233332
-0.22834955 -0.21062763 0.0409836 0.16300212 -0.036989607 -0.07719998 -0.028042 -0.04444746
0.2405721 0.1860111 0.0153541565 -0.013665325 0.23204125 0.19639756 -0.014449351 -0.20193423
0.19801785 0.25427037 -0.27634752 0.1365141 -0.2005945 0.028896803 -0.09908274 -0.24894695
0.1316842 0.034241386 -0.22856507 0.00046302401 -0.10171619 0.09560556 -0.23093365 0.030743795
-0.037113067 0.17580506 -0.058290362 -0.20941396 0.1872276 -0.06318904 -0.25917342 0.13616316
-0.030629046 0.16489583 -0.045047928 -0.026957894 -0.086176515 -0.075783186 0.42473733 -0.16906941
-0.1967213 -0.10204494 -0.41199872 0.09484439 0.070668206 -0.3353355 0.04306607 0.16402605
-0.19211078 -0.14014225 -0.20980965 -0.03343087 0.26610968 -0.023226619 -0.07952381 0.23766232
0.34909353 -0.058200143 -0.3036082 0.104892805 -0.09683089 -0.30859005 -0.07456288 0.10331287
-0.09287414 0.16276506 -0.15360291 -0.006729195 -0.0780671 0.038024664 0.048023432 0.14609666
0.020226521 0.13102089 0.11461643 -0.4152196 -0.11788375 -0.01341028 -0.17342433 -0.15904553
0.29013947 -0.28650045 -0.19475746 -0.07897556 -0.15610635 0.3989355 -0.17217584 -0.039263643
-0.39367506 -0.2319728 0.15064605 -0.14796506 0.25638208 0.04545574 -0.32385516 0.3820291
0.042603973 -0.37881085 0.018173965 0.13967972 0.1682965 -0.36355123 -0.12645026 0.118572555

lstm.bias_ih_l1 f4 [256]
00000000: 2135 9fbe 8eb6 15bf f5f0 3abd b911 04bf
00000010: 8639 5abc 846d 8a3e cc5d cbbc b0c4 15bf
00000020: bbdd d5be 3fbd 46be 6bb3 5bbe df34 c1be
00000030: 1c7f 8d3d b9e3 9a3d 2fdc 41be 2594 d73e
00000040: c0fb 9ebb d8ac 0b3d 47d7 9bbe ac40 5ebe
00000050: cfdd 15be a69d 98be aa92 9ebe c246 09be
00000060: e660 22be 85c1 d8bc 8fe0 4dbd 0a01 76be
00000070: 43da f2bd 3367 69be 466e 32be 59d5 f63d
00000080: 9de0 063e cdbe 8fbe 88ff 373d e77b a83c
00000090: 43ad 9dbc ba05 c5be 32d9 10be ab9f 12be
000000a0: c742 093e 44a5 bebe 2027 57be fb10 9bbe
000000b0: efad a9be e74b 69be 77cc c9be 1a68 cebe
000000c0: 9174 a4be 4690 d6be 9418 563e 9c97 b83c
000000d0: 1078 2bbe 9064 7dbe d8d0 1abe a620 7e3d
000000e0: dbf8 2abe 769f 1ebe a9eb cdbe c190 16bf
000000f0: cb13 81be 4fe9 403e 725f 81be e314 07bf
00000100: 5637 85bd 06b3 4abe a00a 9dbe 7ac3 c4be
00000110: b22d 4b3c 47f2 1abd f4c4 7fbe 0d53 0fbe
00000120: 65ab 03bf 4657 d73d 1a6c 9abc 6780 a3be
00000130: 6f85 e8bd 2696 7c3d cf95 82be 9d42 dfba
00000140: 725f 92be dfbb 4dbd 72c5 cbbc ae80 b93d
00000150: 7bf6 25be b953 1dbe 5a0c 90be 5ef0 82bd
00000160: 2ae9 163d 16f1 eb3c ba8b 013d 787e 09bd
00000170: 4568 18bf 18bb 2dbe b3cb d0be 6794 043e
00000180: 28d1 f4bd dd1c 93be e825 253c 7d74 debd
00000190: 84e9 cbbd 12d5 e5be 3c50 f8bd 6622 07bd
000001a0: 8447 c4bc 05c2 84be b9c2 54bc 89b6 833d
000001b0: 5505 a4be 8f89 6bbd bfc3 88bc 39a3 bdbe
000001c0: 9abe cdbd a98b 55be 2679 7ebd e80e 93bc
000001d0: afb5 21be 561e 22be 549e b2be 95f9 893d
000001e0: 6a2b 59be fe1b 38bc fd34 2abf bb05 e3be
000001f0: b10a 07be fd30 a7bc 2275 adbd 8acd acbe
00000200: b618 103e ffbd 1b3d ef23 b13d 8ecf 8f3d
00000210: 8be9 833d 7065 eb3c 6331 b03d 19d0 80bd
00000220: 6394 9c3d b47a 963d 249e b6bc d04d e1bc
00000230: f834 c7bd 3382 423d 111c c13d df5e e33b
00000240: fefb 893d 4499 fabc 2180 67bd 136a 923d
00000250: fe42 d0bd 3ee4 123e cb3a c23d cef1 e73a
00000260: be81 1f3d 41db 70bc 16f3 003e c25a cc3d
00000270: dcf3 90bc 8478 ba3d 29ed 14be d296 1dbe
00000280: 6fdb 713b 83c1 1bbd b7e2 b63c 018c abbc
00000290: 5e68 b63c c38f bc3d f391 afbc f6db f23d
000002a0: 5999 a13c 2051 63bc 0695 713c c901 62bc
000002b0: 2317 8c3c f4fa 8abd 3c99 e13d 6910 0abd
000002c0: 48d8 833d 34bc cebc 5fcc 84bc 4030 d23c
000002d0: f638 88bd d73e f13c 1344 713d 8e58 9c3d
000002e0: 62ed 9dbc 6ac5 e0bd dfdd 74bd d8c5 15bc
000002f0: 0752 213d 8f12 333d cdd2 803c 52e2 0abe
00000300: abfd 92be 6f90 06bf a0a6 12bd 3d04 fabe
00000310: c431 50bd 9fca 963d 9b2e b53d f119 24bf
00000320: b017 45be 9887 97be bf3c edbe a070 adbe
00000330: c359 b3bd 325e 7a3d 5041 3fbe 3105 2b3d
00000340: bd6f 2abe 04e6 c53d abff 6ebe 53af 91be
00000350: 70dc 103e 3db9 53be 8f31 88be 1063 8ebe
00000360: 81d9 143e 1be2 ab3d 9492 423d 9c88 39be
00000370: 0f89 b2bd bec6 4cbe 3185 5fbe 6a21 543e
00000380: 9356 26bd c683 c3be 4033 4c3e 7c2b 103d
00000390: ad89 653e 9204 46be 00f2 40be 9467 c83c
000003a0: 93b6 ab3c 2fb8 03bf 45e4 71be d862 93be
000003b0: 289b 82be de12 84be af20 c3be e308 afbe
000003c0: 62ca 9fbe 2e73 f0be d337 f5bd 60d1 3f3d
000003d0: 1be1 acbd d845 92bd f7b3 7ebe 5391 213e
000003e0: 8618 39bd 1ab1 d2bd f11a fbbe 9124 fabe
000003f0: fbdc 86be 68bb 2a3d a215 9a3e 5999 ccbe
-0.31095222 -0.5848168 -0.04563995 -0.5158954 -0.013319379 0.2703668 -0.024825 -0.58503246
-0.4177073 -0.19408129 -0.21455161 -0.3773565 0.0690901 0.07562966 -0.1893165 0.42105213
-0.0048517883 0.034100384 -0.3043768 -0.21704358 -0.14635395 -0.29807776 -0.3097127 -0.13405898
-0.15857276 -0.026459465 -0.050262984 -0.24023834 -0.11858036 -0.22793274 -0.17424878 0.120524116
0.1317162 -0.28075257 0.044921428 0.020566894 -0.019247657 -0.38480932 -0.14145353 -0.14318721
0.1340438 -0.37235463 -0.21011019 -0.30286393 -0.33140513 -0.2278286 -0.39413807 -0.40313798
-0.32120183 -0.41906947 0.20907813 0.02253323 -0.16745019 -0.24745393 -0.1511873 0.062042855
-0.16696493 -0.15490517 -0.40218857 -0.58814627 -0.25210413 0.18839 -0.25268131 -0.52766246
-0.06504695 -0.19794855 -0.3067217 -0.38430387 0.012401031 -0.03782871 -0.24977475 -0.13996525
-0.514334 0.10514693 -0.018850375 -0.319339 -0.113535754 0.06166663 -0.2550492 -0.0017033402
-0.28588444 -0.050227996 -0.024874423 0.09057747 -0.16207306 -0.15363969 -0.28134423 -0.06393503
0.036843456 0.028801482 0.031627394 -0.033567876 -0.595341 -0.16965902 -0.4078041 0.12947236
-0.11953956 -0.28732958 0.010079838 -0.10862062 -0.09956649 -0.44889122 -0.121246785 -0.03299179
-0.023959883 -0.25929275 -0.012985879 0.064313 -0.32035318 -0.057504233 -0.016694902 -0.37038592
-0.1004612 -0.20854057 -0.062127255 -0.017951444 -0.15791963 -0.15831885 -0.3488642 0.06737057
-0.21207967 -0.011237143 -0.66487104 -0.4434031 -0.13187672 -0.020409102 -0.08469607 -0.33750564
0.14071926 0.03802299 0.08649432 0.0702201 0.06441029 0.028734893 0.0860317 -0.062896915
0.0764549 0.073476225 -0.022292204 -0.027502924 -0.097269 0.04748745 0.09429181 0.0069387998
0.06737517 -0.03059066 -0.056518678 0.07149138 -0.10169028 0.1434488 0.0948387 0.0017695965
0.03894209 -0.014700712 0.1259273 0.09978248 -0.017694406 0.09105018 -0.14543594 -0.15389565
0.0036904474 -0.038026344 0.022324903 -0.020940783 0.022266563 0.09207108 -0.021431899 0.118583605
0.019726442 -0.013874322 0.014745003 -0.013794371 0.017100876 -0.06786147 0.11015555 -0.033707056
0.06437737 -0.025236227 -0.016210733 0.025657773 -0.066514894 0.02944891 0.05890281 0.07634078
-0.019278232 -0.10975154 -0.059781905 -0.009141408 0.039384868 0.04371887 0.015725518 -0.13562897
-0.28709158 -0.5256414 -0.035803437 -0.4883136 -0.05082871 0.07362866 0.0884678 -0.64102083
-0.19247317 -0.29595637 -0.46335408 -0.3387499 -0.08757355 0.061124988 -0.18677258 0.041752998
-0.16644187 0.096630126 -0.23339717 -0.28454074 0.1414659 -0.20676132 -0.2660031 -0.27809954
0.14536096 0.083927356 0.04750307 -0.18118519 -0.08717548 -0.19997689 -0.21828152 0.20715871
-0.040609907 -0.38186473 0.19941425 0.03519772 0.224158 -0.19337681 -0.18842316 0.024463452
0.020961082 -0.51452917 -0.23622234 -0.2878635 -0.25509 -0.25795645 -0.38110873 -0.34186468
-0.31209093 -0.46962875 -0.11973538 0.046830535 -0.08441373 -0.07142228 -0.24873339 0.15778093
-0.045189403 -0.10287686 -0.49043992 -0.48856023 -0.2634047 0.04168263 0.3009463 -0.39960745

lstm.bias_hh_l1 f4 [256]
00000000: 63cd 99be fb65 09bf ef8d 41be 835f 14bf
00000010: 2240 ac3d 1eed 543e f90a 94bd 643a 23bf
00000020: b83e 9bbe cf14 58be ed73 ccbe 4c1d 67be
00000030: eba1 debd e9d4 843c b9a7 0ebe 14e9 883e
00000040: 1946 0fbe 5ecf a5bb dd24 9abe eaa1 65be
00000050: a7fb 75bc f209 2ebe 3af2 79be 3e9b 41be
00000060: ab53 57be 7efb e5bd da6a 883d 12cc f2bd
00000070: 3255 18be 801a 9ebe cae3 95be 8873 013d
00000080: afb2 41bd 375f 76be ecb1 113e 07bc 2ebe
00000090: 5403 d2bb 95c5 65be bbbf 88be 3f9b 2dbe
000000a0: 9df7 1a3e 4e54 e2be 378a a2be 3aab a1be
000000b0: be05 f8be 7753 a7be 259f b9be f826 bcbe
000000c0: d8ab 87be 3cd3 97be 393c a63c 15d7 10bd
000000d0: 752f 63be 1198 afbe 33d1 9bbe fcd2 f53d
000000e0: 9212 6cbe 9a9a 7dbe d611 0dbf 2a0f febe
000000f0: db0c 6abd 3d5d 8c3e f7c1 e1bd ab1c febe
00000100: c6d9 40be de6d 80be e54c b0be 9e85 f1be
00000110: 1ab6 563e 59bd 44be 5009 9fbd 2e83 9bbe
00000120: a663 bcbe cbb5 8c3d facd 68be a42b 7dbe
00000130: a6f2 31be fa0e a53d 8a08 8ebd 330f 393d
00000140: 6318 a1be be89 e9bc fe42 0bbe 65eb 7d3d
00000150: ff17 87be 75dd 71be 1fb1 3fbe e719 d6bd
00000160: 723d 703d e787 cbbd 90dc 86ba d74b 1e3d
00000170: f8a8 0fbf 42db b8bd 7361 bcbe 6b40 13bd
00000180: ffbb f13c 2a1d d9be bef7 20be bc47 a6bd
00000190: 9605 8e3d 76d4 eabe b4d6 0cbd 9511 1a3d
000001a0: 1fc8 f1bd dc12 9ebe b972 24be 2360 7bbb
000001b0: 37e9 d4be 70d4 cebd ac99 86be 9698 d3be
000001c0: 6f6c cd3a e038 e0bd 7980 02ba 8c1d bfbd
000001d0: 9dde 7dbe 8289 f7bc d86b 82be 30eb e9bd
000001e0: 1d86 7cbd a403 81be e9d5 17bf f3a2 21bf
000001f0: d1dd 8cbe ca0e 45bd 2c21 4b3b 5702 d9be
00000200: 55fa 2d3d 739f 67bc de7c 9d3d b7b0 ab3d
00000210: 29d8 91bd 8382 243d 7b25 cc3d 59f2 633c
00000220: 4d85 fc3d c2fb d6bd c3f8 ab3c 2caf e33d
00000230: 87c4 3abc 8ad2 40bd 6f00 923d 7857 453d
00000240: f56e 4abc a197 513d 9f67 bf3d 0934 f53d
00000250: 822c 76bc 826d 98bc 1532 993c 8c17 353d
00000260: 380b 0f3d 1f61 ad3c 92a4 70bd 5dbf cbbd
00000270: 2285 0dbd 5bab 3fbd 3e06 50bc a74c 99bd
00000280: 0637 aa3d b0d5 193d 0168 20bd 4133 323e
00000290: 9dea 653d 8931 a03d c80e 48bd 1607 1dbd
000002a0: 0992 0a3d 9f9e 383d ebe6 933c 2a9c a93d
000002b0: f77a 8ebd 2969 edbd de3e a0bc 3708 823d
000002c0: 0dfd bb3d 05f1 f73c 3eec a9bc eee4 25bd
000002d0: a38f b53b de5f 8abd 7a78 b4bd c77b 57bd
000002e0: 9f73 edbc d827 d13d 6098 8abd 64f7 51bb
000002f0: 9c22 e53c 1090 493d 1237 873d da1a 573d
00000300: 7a83 90be 987e 1dbf be85 a3bd 76ea 0fbf
00000310: 3331 c9bd 3095 f23d d02c 3abd 8d9b 27bf
00000320: 71d2 4dbe f97e 0dbe 9a64 c9be ca93 87be
00000330: bf95 15be 1a72 7c3d 058a edbd 6149 b6bc
00000340: 6589 2cbe 04a8 5c3d 7079 abbe d360 7bbe
00000350: 6e97 c83d 8acb 94be 9f45 ddbe c298 62be
00000360: 1c87 8b3b 9cfa 0abe 0491 363d e7c5 46be
00000370: 79c9 a4bd 77be 64be 9b6b 26be 4a84 1c3e
00000380: fdf4 12be 930e 6bbe ee44 9d3e 4aba f8bc
00000390: a9f3 443e d636 9dbe 0690 f0bd 0fc4 6b3e
000003a0: 1de0 e2ba c21a 1bbf ec80 b2be 5afd afbe
000003b0: 6ab8 aabe 8c79 99be 7285 cebe 85a9 cfbe
000003c0: 846f 4abe c533 c3be be2c c2bc d034 853d
000003d0: 3db4 69be fb97 4abe c783 fdbd 371d 273d
000003e0: 973a 20be fbe2 91be 8f41 03bf 3daf f8be
000003f0: 0ed0 3fbe 5521 133e 7cd6 b03e b7a2 efbe
-0.3003951 -0.53671235 -0.189018 -0.5795824 0.0841067 0.20793578 -0.07228655 -0.6376097
-0.30321288 -0.21101688 -0.39932194 -0.2256977 -0.10870727 0.016214805 -0.13931169 0.26740324
-0.13991584 -0.0050601205 -0.3010625 -0.22425047 -0.015013612 -0.16995981 -0.24408808 -0.18906876
-0.2102801 -0.11229609 0.06661005 -0.118553296 -0.1487625 -0.30879593 -0.29275352 0.03160432
-0.047289547 -0.24059759 0.14228028 -0.17063914 -0.006409088 -0.22438653 -0.2670878 -0.16953753
0.1513352 -0.44204944 -0.31746075 -0.31575948 -0.4844188 -0.32680866 -0.3625423 -0.3674848
-0.26498294 -0.29653347 0.020292388 -0.03536137 -0.22186072 -0.34295705 -0.30433044 0.12003133
-0.23053959 -0.24766007 -0.5510534 -0.49620944 -0.057141166 0.27414885 -0.11023324 -0.49631247
-0.18833074 -0.25083822 -0.34433666 -0.47172254 0.20967904 -0.19212855 -0.07765448 -0.3037352
-0.36794776 0.06870612 -0.22734824 -0.24723679 -0.1737772 0.08059497 -0.069352224 0.04518051
-0.31463918 -0.028508063 -0.13599774 0.061992068 -0.26385495 -0.23619635 -0.1871991 -0.10454159
0.05865235 -0.09938031 -0.0010289121 0.038646545 -0.561172 -0.09026195 -0.36793098 -0.035950106
0.029508589 -0.42405063 -0.15719506 -0.08119151 0.06934659 -0.4586522 -0.034384444 0.037614424
-0.11805748 -0.30873764 -0.16059388 -0.0038356862 -0.4158418 -0.10099113 -0.26289117 -0.4132735
0.0015672575 -0.10948348 -0.00049782504 -0.093318075 -0.24791951 -0.030216936 -0.25472903 -0.114218116
-0.061651338 -0.2519809 -0.59310776 -0.63139266 -0.27512982 -0.048109807 0.0030995114 -0.42384598
0.042475063 -0.014137137 0.07689832 0.08383315 -0.071213074 0.04016353 0.09968086 0.013912761
0.123301126 -0.10497238 0.020992642 0.11117396 -0.011399395 -0.047075786 0.07128989 0.04817912
-0.012355556 0.051169995 0.09345936 0.119728155 -0.01502526 -0.018606905 0.018700639 0.04421191
0.03492281 0.021164475 -0.058750696 -0.09948609 -0.034550793 -0.046794277 -0.012696801 -0.074853234
0.08311276 0.037557304 -0.039161686 0.17402364 0.056131948 0.07821948 -0.04884222 -0.038336836
0.033830676 0.045073148 0.018054446 0.08281739 -0.069570474 -0.11592323 -0.019561227 0.06349223
0.09179125 0.030266294 -0.020742532 -0.040501527 0.0055408045 -0.067565665 -0.088120416 -0.052608278
-0.028985796 0.10212678 -0.067673445 -0.0032038325 0.027970605 0.049209654 0.06602301 0.052515842
-0.2822531 -0.6152129 -0.07984494 -0.56217134 -0.09823837 0.118448615 -0.045452893 -0.65471727
-0.20099808 -0.13817967 -0.39334565 -0.26479942 -0.14607905 0.061632253 -0.11598591 -0.022251787
-0.16849287 0.05387117 -0.33491087 -0.24548654 0.09794508 -0.29061538 -0.4321718 -0.22128585
0.0042580497 -0.13572162 0.04457189 -0.19411431 -0.0804624 -0.22338282 -0.16251986 0.1528484
-0.14351268 -0.22954778 0.30716652 -0.030362267 0.19233574 -0.307059 -0.1174622 0.23024009
-0.0017309223 -0.60587704 -0.34863985 -0.3437298 -0.33343822 -0.29975545 -0.40336186 -0.4055902
-0.19769102 -0.38125435 -0.023702975 0.06504214 -0.22822662 -0.19784538 -0.1237865 0.040799346
-0.1564735 -0.28493485 -0.5127191 -0.48571196 -0.1873171 0.14368184 0.3453864 -0.4680383
