lstm_model_new.pth (torch, 208603 bytes, 10 tensors)

lstm.weight_ih_l0 f4 [256, 4]
-0.07755022 -0.02179123 -0.18276805 -0.016469037 -0.1855752 0.6492104 -0.0802775 0.19293843
-0.114636935 0.16203234 -0.31743866 -0.415182 -0.0826271 0.055878766 -0.34291345 -0.5454427
0.011501993 0.22643967 0.029051598 -0.09312198 -0.12821405 0.51657826 -0.22665888 -0.14801274
-0.19731548 0.08436906 -0.5381814 -0.39481232 -0.236986 0.17215732 -0.1595008 0.291029
-0.16207528 0.5286484 0.10255706 0.116842926 -0.16273436 0.10147083 -0.47072166 -0.092220575
-0.021398114 0.22197096 0.026492722 0.3731749 0.30933034 0.09535793 0.04874188 -0.10195709
0.015629593 0.15617137 -0.09838798 -0.05734699 -0.06479176 -0.014924932 -0.08944401 0.03682498
-0.114767626 0.4490791 -0.13722019 -0.45854363 0.07294604 0.07335316 -0.46279645 -0.65997034
-0.024496458 0.1815463 -0.12675782 -0.092365906 0.013782389 0.13919635 -0.31392536 0.025063664
0.069288656 0.43835813 0.18637682 0.31981248 0.13829236 0.20680188 -0.39205796 -0.3554661
-0.004052532 0.6295271 -0.02492894 0.03838232 -0.18438348 0.10463045 -0.024308998 0.040803943
-0.017616823 0.57216007 -0.3177652 -0.17205353 -0.0708776 0.3427177 -0.38389212 -0.44961998
0.10553157 0.05030504 0.4485134 0.18061702 0.03720378 0.16326845 -0.3937692 -0.31709918
-0.018590404 0.12984551 -0.40173167 -0.24824522 -0.20782664 0.21196915 -0.24847665 -0.33907866
0.12812161 0.2047853 0.14028612 -0.11733112 -0.12520966 0.04914296 -0.36965895 -0.28394517
-0.2221017 0.18771803 -0.22564273 0.288545 0.039193586 0.16150102 -0.46954775 -0.45561206
-0.06464407 0.07411424 0.078064606 0.11552448 0.049890347 0.2819755 -0.27009034 -0.18456113
-0.105815336 0.1005179 -0.4444906 -0.45771867 0.034627143 0.60733765 -0.27253076 -0.24447583
-0.057480108 0.20859322 -0.36434212 -0.14001371 0.06920564 0.10342743 -0.45065102 -0.54365575
0.12852308 0.36549047 0.13968913 0.32481438 -0.10314039 0.02746373 -0.42443487 -0.3188995
-0.13665095 0.091697626 0.087937504 -0.085115165 0.20056243 -0.24637471 0.101993866 0.029592995
0.11888672 -0.13150701 -0.0617592 -0.07978102 0.058215804 0.07406359 -0.27848405 -0.4548665
-0.047720235 0.268384 -0.21219906 -0.3331966 -0.1072416 0.07555723 -0.013155416 0.38601047
-0.03840802 1.0405966 -0.06270203 0.13459699 0.031431843 0.24477924 -0.1685367 -0.19434437
-0.11475791 -0.1694785 -0.15013535 -0.12643962 0.09508683 0.18286924 0.16954795 0.48651475
-0.02719762 0.04532634 -0.34854314 -0.3866443 -0.074215814 0.11956435 -0.16107339 -0.26033664
-0.00044676813 0.12334759 -0.47150224 -0.5315917 0.0013195022 0.07724188 -0.068605125 0.1450695
-0.05637693 -0.13008393 -0.24586727 -0.07773104 0.12876207 0.047840755 -0.4221153 -0.35829607
0.013377677 0.058847938 -0.6172844 -0.37488437 -0.07945324 0.17848204 -0.31307665 -0.108972214
-0.13265571 0.28143474 -0.31251678 0.12100154 0.061192244 0.1416628 -0.1232845 0.010266392
-0.0047244877 0.25079873 -0.16532499 -0.21937127 -0.0209861 0.09262349 0.0941288 -0.11479682
-0.13379315 0.13160549 -0.2426235 -0.027904581 -0.029946808 0.26585385 -0.05732189 0.15026237
00000000: a6d2 9ebd 8683 b2bc 8c27 3bbe 13ea 86bc
00000010: 6d07 3ebe a732 263f 8868 a4bd a791 453e
00000020: c5c6 eabd ceeb 253e 5287 a2be bc92 d4be
00000030: 6638 a9bd 22e1 643d 5a92 afbe 22a2 0bbf
00000040: db72 3c3c cddf 673e 9efd ed3c bdb6 bebd
00000050: 8b4a 03be 793e 043f 4419 68be a790 17be
00000060: 120d 4abe b0c9 ac3d 42c6 09bf d724 cabe
00000070: 75ac 72be 024a 303e 2d54 23be c101 953e
00000080: 10f7 25be 8055 073f 7009 d23d 584b ef3d
00000090: d6a3 26be f0cf cf3d 6e02 f1be 24de bcbd
000000a0: 194b afbc 5b4c 633e 4407 d93c c810 bf3e
000000b0: 8c60 9e3e 054b c33d 91a5 473d e1ce d0bd
000000c0: a209 803c 63eb 1f3e a37f c9bd ade4 6abd
000000d0: 8bb1 84bd b487 74bc 6c2e b7bd cad5 163d
000000e0: 4a0b ebbd b2ed e53e 7383 0cbe 3bc6 eabe
000000f0: bc64 953d 2e3a 963d a8f3 ecbe d1f3 28bf
00000100: ccac c8bc 46e7 393e cdcc 01be 562a bdbd
00000110: 88cf 613c 7d89 0e3e d3ba a0be 5052 cd3c
00000120: 36e7 8d3d 7a70 e03e 91d9 3e3e 76be a33e
00000130: 839c 0d3e dfc3 533e d2bb c8be a7ff b5be
00000140: 1acb 84bb b028 213f c737 ccbc c836 1d3d
00000150: 06cf 3cbe 7d48 d63d aa23 c7bc 0922 273d
00000160: 2851 90bc 1579 123f 1fb2 a2be cd2e 30be
00000170: 4628 91bd b278 af3e 828d c4be 9734 e6be
00000180: f020 d83d a80c 4e3d 8ca3 e53e abf3 383e
00000190: fe62 183d d82f 273e 1e9c c9be d35a a2be
000001a0: e74a 98bc 39f6 043e c6af cdbe ff33 7ebe
000001b0: 82d0 54be 710e 593e aa70 7ebe b89b adbe
000001c0: 5032 033e 3db3 513e 2aa7 0f3e 4c4b f0bd
000001d0: f636 00be 214a 493d f043 bdbe 4361 91be
000001e0: a16e 63be 2839 403e e30e 67be 2cbc 933e
000001f0: 7489 203d 8660 253e 9068 f0be fc45 e9be
00000200: 1c64 84bd 35c9 973d 56e0 9f3d 1998 ec3d
00000210: d259 4c3d 185f 903e 4849 8abe 98fd 3cbe
00000220: b6b5 d8bd 54dc cd3d 4694 e3be 1a5a eabe
00000230: 31d5 0d3d 7b7a 1b3f 2789 8bbe df57 7abe
00000240: 4370 6bbd 7699 553e 0d8b babe c15f 0fbe
00000250: b0bb 8d3d c3d1 d33d bbbb e6be 062d 0bbf
00000260: 8e9b 033e 9121 bb3e ab0a 0f3e 124e a63e
00000270: 453b d3bd 9efb e03c 874f d9be cc46 a3be
00000280: 3aee 0bbe f7cb bb3d 9418 b43d dc50 aebd
00000290: 3d60 4d3e a749 7cbe 29e2 d03d 026d f23c
000002a0: e17a f33d c6a9 06be 37f7 7cbd 3b64 a3bd
000002b0: b273 6e3d a7ae 973d 7695 8ebe 43e4 e8be
000002c0: 4b76 43bd a169 893e b64a 59be bf98 aabe
000002d0: 7ca1 dbbd c0bd 9a3d d089 57bc 2aa3 c53e
000002e0: ba51 1dbd 4532 853f ec69 80bd cbd3 093e
000002f0: adbe 003d 69a7 7a3e e294 2cbe 3602 47be
00000300: 3206 ebbd c68b 2dbe 15bd 19be 6379 01be
00000310: e2bc c23d 1342 3b3e fa9d 2d3e 7618 f93e
00000320: 8bcd debc 1da8 393d 3f74 b2be 3ef6 c5be
00000330: 76fe 97bd 27de f43d 6cf0 24be d84a 85be
00000340: 343c eab9 a99d fc3d be68 f1be 6516 08bf
00000350: 26f3 ac3a fe30 9e3d d880 8cbd 198d 143e
00000360: 7feb 66bd b934 05be a1c4 7bbe 7431 9fbd
00000370: 34da 033e abf4 433d 7f1f d8be 9572 b7be
00000380: 0b2e 5b3c 890a 713d 5a06 1ebf d8f0 bfbe
00000390: 61b8 a2bd ffc3 363e 954b a0be d32c dfbd
000003a0: e6d6 07be 3718 903e 3302 a0be a8cf f73d
000003b0: b8a4 7a3d 0e10 113e 957c fcbd 5e34 283c
000003c0: e0cf 9abb b168 803e f44a 29be dda2 60be
000003d0: 0beb abbc 62b1 bd3d 9ac6 c03d 981a ebbd
000003e0: 1201 09be 97c3 063e 4b72 78be 2698 e4bc
000003f0: 0253 f5bc ff1d 883e 5cca 6abd 61de 193e

lstm.weight_hh_l0 f4 [256, 64]
-0.05313886 -0.053953197 -0.0477074 0.17720988 0.036040653 0.02193049 0.008116794 -0.18519607
0.09441851 0.23905817 0.07764117 -0.16200991 -0.09168851 0.17886178 0.27907544 0.07579461
-0.019072037 0.06854319 0.101989515 0.059934974 0.09035477 0.22051267 0.026973747 -0.22002293
0.022480778 -0.03141246 -0.105079085 -0.15263827 -0.12725699 0.05888608 -0.19833647 0.093124755
-0.22094426 0.043822154 0.18273409 -0.02667199 -0.16833824 0.076519184 -0.03461559 -0.064328656
0.01798292 -0.17014292 -0.08632404 -0.07914815 0.07231716 -0.20544374 0.13797745 -0.11769382
0.16486423 0.23782395 -0.1641651 -0.21934289 0.079869375 0.005749845 0.20442167 0.075806245
-0.09125396 0.14188401 -0.12911172 0.12199056 0.11873556 -0.115450814 -0.17560777 0.3117544
0.25048545 0.0021165065 -0.030472016 -0.14916895 -0.0265284 -0.033392075 0.13477848 0.47234386
0.10567103 -0.045043275 -0.28848407 0.12433729 0.0999437 -0.0053852824 -0.00764197 -0.124741286
0.07386564 -0.05840519 0.2839576 0.03416485 -0.11425105 -0.04510758 -0.21028695 0.204739
-0.17194815 -0.09832345 0.036054097 0.039047178 0.15469036 -0.30269372 0.0925067 -0.143329
0.025048094 0.06846729 -0.22493209 0.035253737 0.019698543 -0.11605774 0.46134967 0.0906687
-0.10654177 -0.01601146 0.25613376 0.060581878 -0.042644244 0.27757075 0.20812719 0.026269693
0.011476683 -0.38972747 -0.06946418 0.03692226 0.16651398 -0.07231613 -0.14392751 -0.091850415
0.0306326 -0.16354045 0.19779243 0.11819534 0.11148303 -0.0026071726 0.23972084 -0.42324683
0.0034852852 0.39940026 0.13511512 -0.032648943 -0.16676761 -0.1900568 0.099939 0.19099532
0.3473472 0.29478183 -0.24979189 0.233432 0.28480834 0.31218386 0.10494164 -0.022497524
0.17018558 -0.25270295 -0.035208385 -0.10037542 0.10750301 -0.26305187 -0.029683968 -0.039180394
-0.3309851 0.1472655 -0.14652595 -0.012256779 0.25604707 -0.04409245 0.28373078 -0.27465206
0.115922034 -0.07713938 -0.11850426 0.089007996 0.2688489 -0.11218737 0.12091378 0.1495317
0.36375016 0.27617383 0.50131863 -0.11103424 0.047023512 0.06256728 0.023690866 0.014642538
-0.34674624 -0.38478202 0.27309358 0.031113075 -0.011491047 -0.15580864 -0.25918573 -0.1389173
-0.114326485 -0.09270495 -0.12922409 -0.16894518 0.205976 0.3328124 -0.053638145 -0.07846103
0.18205133 0.103230864 -0.005778841 0.04360333 -0.46583548 0.05153897 -0.06546882 0.23927924
0.050629325 0.034706887 -0.311311 0.38159057 0.2861677 0.6360529 0.084552765 0.11428585
0.49865824 -0.337982 0.14526208 -0.121261604 -0.056465708 -0.2419365 0.044754673 -0.0105117895
-0.65497214 0.109139666 -0.07463328 0.016431142 0.4026831 0.02382163 0.17925899 -0.2735738
0.2235765 -0.09550009 -0.17755936 -0.23929326 0.25965074 -0.013323871 0.37899247 0.25918242
0.15328032 0.4934725 0.52769965 0.08281124 0.053034123 0.11946632 0.015825821 -0.023877384
-0.17019315 -0.29736423 0.24602513 0.021158008 0.0006485308 -0.3750717 -0.3419356 -0.14297289
0.072853744 -0.35979393 0.0031274117 -0.51957613 0.045227464 0.5428767 -0.035706602 -0.16547538
00000000: 22a8 59bd 07fe 5cbd d668 43bd 8276 353e
00000010: 5d9f 133d 92a7 b33c 4dfc 043c 0aa4 3dbe
00000020: 7e5e c13d aacb 743e 5502 9f3d ede5 25be
00000030: 2fc7 bbbd 8b27 373e fae2 8e3e 343a 9b3d
00000040: f63c 9cbc 5f60 8c3d e1df d03d 607e 753d
00000050: ec0b b93d 13ce 613e 0cf8 dc3c b14d 61be
00000060: 9c29 b83c 5aaa 00bd b433 d7bd 354d 1cbe
00000070: a84f 02be 8832 713d b718 4bbe 31b8 be3d
00000080: 363f 62be dc7e 333d a51e 3b3e 387f dabc
00000090: dc60 2cbe 17b6 9c3d 14c9 0dbd bebe 83bd
000000a0: eb50 933c f239 2ebe a9ca b0bd 6d18 a2bd
000000b0: 051b 943d d85f 52be f649 0d3e 7509 f1bd
000000c0: 2bd2 283e 1f88 733e e51a 28be 6c9b 60be
000000d0: 8e92 a33d 3269 bc3b ea53 513e 4e40 9b3d
000000e0: 5be3 babd 0b4a 113e dd35 04be 30d6 f93d
000000f0: a12b f33d 7a71 ecbd 86d2 33be 469e 9f3e
00000100: a13f 803e 16b5 0a3b 73a0 f9bc bfbf 18be
00000110: 1652 d9bc 21c6 08bd 5f03 0a3e 0ed7 f13e
00000120: 0e6a d83d 4c7f 38bd 2fb4 93be 8da4 fe3d
00000130: 48af cc3d 0677 b0bb 7e69 fabb 5c78 ffbd
00000140: de46 973d 483a 6fbd e462 913e 71f0 0b3d
00000150: 74fc e9bd bac2 38bd 7655 57be 1aa7 513e
00000160: 2d13 30be ce5d c9bd 76ad 133d efef 1f3d
00000170: 2667 1e3e acfa 9abe 2774 bd3d d6c4 12be
00000180: a931 cd3c 9438 8c3d 9954 66be 3966 103d
00000190: d75e a13c aeaf edbd 0636 ec3e 83b0 b93d
000001a0: 9232 dabd 772a 83bc f723 833e b424 783d
000001b0: bbab 2ebd c11d 8e3e 4b1f 553e 8a33 d73c
000001c0: b308 3c3c 5c8a c7be 3c43 8ebd cc3b 173d
000001d0: a482 2a3e 7b1a 94bd bc61 13be 121c bcbd
000001e0: 38f1 fa3c 2677 27be 198a 4a3e 6610 f23d
000001f0: 3751 e43d 19dd 2abb 6179 753e cfb3 d8be
00000200: 6269 643b 317e cc3e 9e5b 0a3e e6ba 05bd
00000210: 21c5 2abe 409e 42be d2ac cc3d 4794 433e
00000220: 7ed7 b13e a5ed 963e 72c9 7fbe cc08 6f3e
00000230: 66d2 913e 90d6 9f3e a4eb d63d ba4c b8bc
00000240: 2145 2e3e 4862 81be ab36 10bd a191 cdbd
00000250: 8a2a dc3d bcae 86be cb2b f3bc 9f7b 20bd
00000260: e176 a9be c4cc 163e e60a 16be a8d0 48bc
00000270: 9a18 833e 499a 34bd 2945 913e 329f 8cbe
00000280: 8868 ed3d 40fb 9dbd 5db2 f2bd d349 b63d
00000290: 90a6 893e 7ec2 e5bd a5a1 f73d d71e 193e
000002a0: 763d ba3e a866 8d3e 6b56 003f eb65 e3bd
000002b0: ba9b 403d 4623 803d 5913 c23c 41e7 6f3c
000002c0: b988 b1be 2602 c5be ecd2 8b3e d9e0 fe3c
000002d0: f244 3cbc 4d8c 1fbe feb3 84be 5640 0ebe
000002e0: 0124 eabd 18dc bdbd 5253 04be f7ff 2cbe
000002f0: 5feb 523e 6366 aa3e acb3 5bbd 2db0 a0bd
00000300: aa6b 3a3e b46a d33d 6f5c bdbb 6899 323d
00000310: fd81 eebe 871a 533d 8414 86bd 9e05 753e
00000320: b260 4f3d cf28 0e3d 2864 9fbe d75f c33e
00000330: 9384 923e 5dd4 223f 002a ad3d b30e ea3d
00000340: 2250 ff3e fa0b adbe 95bf 143e 0158 f8bd
00000350: 9648 67bd 34be 77be ad50 373d a439 2cbc
00000360: 41ac 27bf 9e84 df3d 55d9 98bd 9a9a 863c
00000370: 7b2c ce3e 9425 c33c ab8f 373e dd11 8cbe
00000380: 3df1 643e 8d95 c3bd 1fd2 35be 4b09 75be
00000390: f1f0 843e 5e4c 5abc 4d0b c23e 8fb3 843e
000003a0: 84f5 1c3e 6da8 fc3e 5317 073f f098 a93d
000003b0: 4f3a 593d c2aa f43d 27a5 813c 819a c3bc
000003c0: 1d47 2ebe 2040 98be 03ee 7b3e 8f53 ad3c
000003d0: 2a02 2a3a 6609 c0be 2f12 afbe 7c67 12be
000003e0: 5834 953d e936 b8be 43f5 4c3b f102 05bf
000003f0: 6f40 393d f8f9 0a3f 1641 12bd 6172 29be

lstm.bias_ih_l0 f4 [256]
0.10136656 -0.16466425 -0.28422457 -0.433927 -0.008253618 0.09047146 -0.4003165 0.12415306
-0.20402591 -0.17016627 0.030146133 0.00447043 -0.10572084 0.036772244 -0.36257568 -0.49149805
0.044464786 -0.07215082 0.37503046 -0.5569609 0.070174366 -0.27021727 -0.3592234 -0.26212317
0.048823133 -0.4004693 -0.1644983 -0.3335699 0.005880863 -0.4023938 -0.09697899 -0.35397714
-0.14257133 -0.1092224 -0.4206951 0.100594945 -0.21319626 -0.35762262 -0.023586007 -0.19498846
-0.30013803 0.09963459 -0.1838727 -0.43532306 -0.5678694 0.3836106 -0.028957749 -0.36423275
0.06022755 -0.043465625 -0.3200037 -0.29266632 -0.3957553 -0.033138096 -0.17719899 -0.4651575
-0.5047488 -0.0069384025 3.7580052e-05 -0.0062015927 -0.13789128 -0.048442814 0.13501349 0.11376517
-0.26146019 0.1854342 -0.25816798 -0.20286988 0.29810566 0.19731082 -0.1662837 -0.3127698
0.0089810705 -0.18705873 -0.26015887 0.2737962 0.3422406 0.213119 -0.18639773 -0.3616818
0.13851799 -0.14729193 -0.21272328 -0.16808148 -0.21586607 -0.13954812 -0.23288411 -0.1519089
0.31706026 -0.14861666 -0.08988148 -0.16787806 0.1703273 -0.21647099 -0.085821435 -0.09532086
-0.3903093 -0.13880105 -0.33886775 0.031767283 -0.057070833 -0.23456807 -0.22149904 -0.12029145
-0.09956345 0.31308788 0.036999725 -0.16023038 -0.38203284 -0.14598659 -0.1831176 -0.15900932
0.07150388 -0.1665913 0.040177964 -0.24451296 -0.22931018 0.30483422 -0.030559903 -0.3174504
-0.28245658 0.108030245 -0.09266964 0.43294838 -0.020228487 0.48434588 -0.28028384 -0.26016074
-0.03635659 0.16639367 -0.120095305 0.15390153 0.041076638 -0.26332593 0.030630298 -0.08375295
0.07071156 -0.08157488 0.09537572 -0.12396142 -0.12120541 0.007866638 0.11211848 -0.049791936
-0.06336569 0.093574725 -0.12632547 -0.08816017 0.23223466 -0.1864881 0.063252926 -0.14169487
0.006234378 -0.06771287 -0.059799474 -0.17151265 -0.1496956 0.15176205 0.083750606 0.03519675
0.011659275 0.115146786 0.026358528 0.3229973 -0.052132312 0.08074892 -0.15242769 -0.028300293
0.14278515 -0.103579685 0.062733494 0.02238926 -0.08670983 0.07844355 -0.14551292 -0.13505228
-0.146026 0.15978166 0.0922651 0.001946179 -0.06411341 0.10494147 -0.031717107 -0.080917746
-0.13404739 0.067708574 -0.16369319 0.07023808 0.17512697 -0.12426769 0.017963365 0.019560482
0.099660225 0.014226463 -0.36855203 -0.45596683 -0.09980961 0.37281033 -0.42657512 0.28949013
-0.0853911 -0.1697205 0.23089142 0.16479836 0.01999175 -0.019740375 -0.21712391 -0.5260938
-0.17302595 -0.2268716 0.27942467 -0.43248203 0.3320475 -0.0786192 -0.11839208 -0.110313885
-0.106322065 -0.45162612 -0.22488455 -0.1332901 -0.07115422 -0.1882154 0.15927126 -0.321341
0.008573295 -0.12089239 -0.3800765 0.031603813 -0.3508562 -0.4626321 0.20178601 -0.17596045
-0.15849614 0.006283513 -0.09784749 -0.39354452 -0.47358602 0.26421455 0.4018566 -0.33625942
0.06797057 0.25770453 -0.27572605 -0.17602618 -0.40973255 -0.12574282 -0.24614424 -0.55106926
-0.4815821 -0.006040978 0.15380393 -0.093276806 -0.2758216 0.12428361 0.08992692 0.20918733
00000000: 4599 cf3d bf9d 28be e285 91be ae2b debe
00000010: 2f3a 07bc 1a49 b93d 49f6 ccbe f643 fe3d
00000020: 2bec 50be 1140 2ebe 06f5 f63c af7c 923b
00000030: 2b84 d8bd 7e9e 163d 85a3 b9be a2a5 fbbe
00000040: b520 363d cfc3 93bd fe03 c03e fd94 0ebf
00000050: 94b7 8f3d eb59 8abe 21ec b7be 0235 86be
00000060: c4fa 473d 500a cdbe 3e72 28be adc9 aabe
00000070: 41b4 c03b 8f06 cebe ec9c c6bd 7e3c b5be
00000080: 38fe 11be feaf dfbd 5965 d7be b904 ce3d
00000090: 1f50 5abe 501a b7be 7137 c1bc 0eab 47be
000000a0: b1ab 99be 380d cc3d 2049 3cbe aae2 debe
000000b0: e45f 11bf 9c68 c43e cd38 edbc b77c babe
000000c0: 2ab1 763d 0309 32bd 86d7 a3be 5cd8 95be
000000d0: 70a0 cabe d0bb 07bd a773 35be 2029 eebe
000000e0: 3837 01bf 8a5b e3bb 469f 1d38 bb36 cbbb
000000f0: 5f33 0dbe f96b 46bd fa40 0a3e b7fd e83d
00000100: 1cde 85be 77e2 3d3e 982e 84be 1fbd 4fbe
00000110: 4ea1 983e d90b 4a3e 4646 2abe 5d23 a0be
00000120: 5725 133c 538c 3fbe 8b33 85be 042f 8c3e
00000130: 293a af3e de3b 5a3e 0cdf 3ebe 5b2e b9be
00000140: a9d7 0d3e b2d3 16be 22d4 59be 8d1d 2cbe
00000150: ff0b 5dbe b4e5 0ebe 2c79 6ebe 028e 1bbe
00000160: b955 a23e f72e 18be c813 b8bd 3ae8 2bbe
00000170: 486a 2e3e 92aa 5dbe 26c3 afbd 9537 c3bd
00000180: 9fd6 c7be dd21 0ebe 1380 adbe 691e 023d
00000190: 1bc3 69bd 9d32 70be a5d0 62be 5d5b f6bd
000001a0: ece7 cbbd 0e4d a03e 068d 173d 6f13 24be
000001b0: cf99 c3be 827d 15be 2e83 3bbe 57d3 22be
000001c0: a070 923d e996 2abe a691 243d 9b61 7abe
000001d0: 4ad0 6abe 3b13 9c3e c358 fabc dc88 a2be
000001e0: 269e 90be f63e dd3d 95c9 bdbd 69ab dd3e
000001f0: 36b6 a5bc 2ffc f73e 5d81 8fbe ca33 85be
00000200: a6ea 14bd 1a63 2a3e 87f4 f5bd 5d98 1d3e
00000210: fa3f 283d a8d2 86be 64ec fa3c ab86 abbd
00000220: 39d1 903d bb10 a7bd 5854 c33d 7cdf fdbd
00000230: 8b3a f8bd 12e3 003c 609e e53d a1f2 4bbd
00000240: dfc5 81bd 1ba4 bf3d 775b 01be 528d b4bd
00000250: ecce 6d3e bdf6 3ebe c08a 813d 7618 11be
00000260: c149 cc3b 0cad 8abd 4bf0 74bd 03a1 2fbe
00000270: ce49 19be 8367 1b3e 7085 ab3d 782a 103d
00000280: 8b06 3f3c 14d2 eb3d d7ed d73c e75f a53e
00000290: b188 55bd b15f a53d 0116 1cbe 04d6 e7bc
000002a0: 4536 123e 9621 d4bd 6b7a 803d ae69 b73c
000002b0: ec94 b1bd 03a7 a03d 5701 15be 254b 0abe
000002c0: d787 15be ce9d 233e 7cf5 bc3d ee16 ff3a
000002d0: e44d 83bd 8eeb d63d cce9 01bd 34b8 a5bd
000002e0: b843 09be cbaa 8a3d 309f 27be fcd8 8f3d
000002f0: 7c54 333e 0f80 febd e827 933c 4e3d a03c
00000300: a91a cc3d 1c16 693c dab2 bcbe 7c74 e9be
00000310: fb68 ccbd ffe0 be3e 0e68 dabe 0d38 943e
00000320: 87e1 aebd 36cb 2dbe cd6e 6c3e e7c0 283e
00000330: bdc5 a33c 91b6 a1bc bb55 5ebe 15ae 06bf
00000340: b72d 31be 0751 68be c010 8f3e 496e ddbe
00000350: 2102 aa3e 1a03 a1bd 8c77 f2bd 3fec e1bd
00000360: 62bf d9bd 8a3b e7be 2348 66be 337d 08be
00000370: 4eb9 91bd 8abb 40be 0118 233e cf86 a4be
00000380: 0177 0c3c 6e96 f7bd 6399 c2be 0073 013d
00000390: 6da3 b3be 1dde ecbe fea0 4e3e fa2e 34be
000003a0: d04c 22be ede5 cd3b 4464 c8bd ab7e c9be
000003b0: de79 f2be 2147 873e 26c0 cd3e 322a acbe
000003c0: 2734 8b3d d9f1 833e f72b 8dbe 3540 34be
000003d0: 77c8 d1be bac2 00be 3c0d 7cbe e012 0dbf
000003e0: ee91 f6be 65f3 c5bb c77e 1d3e e907 bfbd
000003f0: 7d38 8dbe 6888 fe3d 9b2b b83d 3435 563e

lstm.bias_hh_l0 f4 [256]
0.03477513 -0.08793628 -0.34381366 -0.40959847 -0.086901605 -0.0023886128 -0.3830777 0.26954368
-0.19394538 -0.30943412 0.10653241 0.056313466 -0.03975711 0.021752654 -0.36167637 -0.59903306
0.097893916 -0.05585441 0.21080351 -0.40263838 -0.10528422 -0.2953327 -0.41570318 -0.25642553
-0.03204302 -0.44350302 -0.23343553 -0.28989157 0.06961142 -0.20160532 0.030950168 -0.31674838
-0.08601016 -0.16566537 -0.3245128 -0.006973183 -0.06424771 -0.28328565 0.030395977 -0.2639386
-0.35348317 -0.052265074 -0.053015992 -0.529898 -0.38875806 0.30012363 0.006585971 -0.2551307
0.20868415 0.10099198 -0.16876686 -0.33952424 -0.31005913 0.05636577 -0.04223002 -0.41334265
-0.39900026 0.08245887 0.2090567 0.03170828 -0.0015279255 0.0052948985 0.2332452 0.14625542
-0.26740006 0.10809829 -0.17152871 -0.1941394 0.22679333 0.29129088 -0.3703651 -0.1602377
-0.1192298 -0.21385317 -0.2278468 0.29702595 0.34886047 0.27605137 -0.2999437 -0.17075533
0.016552541 -0.23866245 -0.22256482 -0.19961429 -0.27794075 -0.15567937 -0.056959312 -0.28828877
0.2963653 -0.07932221 -0.21446611 -0.14025126 0.28364122 -0.21458218 -0.034657754 -0.24130069
-0.19524807 -0.021434758 -0.24760643 0.20050316 -0.07722447 -0.2944183 -0.09635244 0.028270906
-0.13843244 0.2990262 0.28033742 -0.11779564 -0.25987232 -0.25455087 -0.19549225 -0.1230066
0.06576281 -0.15842666 -0.11554321 -0.2047984 -0.308196 0.19970337 0.006205079 -0.23391391
-0.15850417 0.04940764 -0.17615062 0.3862903 0.035347246 0.50308543 -0.14313535 -0.15681534
0.049198553 0.22253762 -0.095209375 -0.053339187 0.11252757 -0.30057207 -0.16360013 -0.09941172
0.1519645 0.069077276 0.06556533 -0.027442675 -0.11585783 -0.058912344 0.04569752 0.004020499
-0.0854237 0.05541191 0.03615544 -0.010567882 0.033669934 -0.09624611 -0.1506607 -0.026633311
0.15697838 -0.06353711 -0.16162358 -0.008663062 0.010423905 0.17130318 0.11568024 -0.006011474
0.12034316 0.09520273 -0.012431303 0.25786388 -0.038176667 0.09731279 -0.030934399 -0.031354714
0.1653573 0.07108407 -0.084632434 -0.06651599 0.15104787 -0.008327341 -0.15002523 -0.117458194
-0.20629482 -0.0013027147 0.087004535 -0.011697373 0.0017370057 0.07028243 0.12593718 0.09043847
-0.14144324 0.15112329 -0.20017882 0.10952711 0.02190935 -0.049642973 0.094414465 0.06885774
0.12383029 0.16834287 -0.29881197 -0.42521414 0.05962788 0.2333759 -0.21714066 0.30860227
-0.12406847 -0.10626139 0.31318632 0.081559576 -0.010529627 -0.0901021 -0.33361626 -0.48991984
-0.12771492 -0.26791653 0.29606077 -0.40507188 0.24016559 -0.09354785 -0.18617259 -0.15890668
-0.057249974 -0.38226345 -0.016081803 -0.23814243 -0.037728112 -0.2447087 0.2070361 -0.3667585
0.06682848 -0.24185261 -0.38481894 0.16277008 -0.23518817 -0.49276143 0.33607534 -0.3136928
-0.18463317 -0.030838992 -0.12150411 -0.36560753 -0.48362315 0.30475748 0.29322392 -0.3600735
0.042406872 0.18763831 -0.40969723 -0.17727976 -0.33717364 -0.18120874 -0.19589524 -0.5973286
-0.36144522 -0.06044121 0.26540673 0.092631646 -0.20272534 0.07914215 0.22462107 0.42586607
00000000: 5e70 0e3d f017 b4bd 5808 b0be e4b6 d1be
00000010: 78f9 b1bd 468a 1cbb c322 c4be a101 8a3e
00000020: 9e99 46be 266e 9ebe aa2d da3d f3a8 663d
00000030: 5ad8 22bd 9f32 b23c a52d b9be 3b5a 19bf
00000040: 9b7c c83d 98c7 64bd e0dc 573e 9e26 cebe
00000050: 419f d7bd d935 97be 0cd7 d4be 354a 83be
00000060: 8b3f 03bd d412 e3be b909 6fbe ab6c 94be
00000070: 6f90 8e3d a071 4ebe 358b fd3c d82c a2be
00000080: 1826 b0bd 2fa4 29be 8b26 a6be 4c7f e4bb
00000090: 4e94 83bd d10a 91be fc00 f93c f622 87be
000000a0: bffb b4be e713 56bd 4c27 59bd 65a7 07bf
000000b0: 4c0b c7be cea9 993e 21cf d73b 7ea0 82be
000000c0: 4cb1 553e e2d4 ce3d 38d1 2cbe 1fd6 adbe
000000d0: 12c0 9ebe cbdf 663d 63f9 2cbd a6a1 d3be
000000e0: c349 ccbe 32e0 a83d f612 563e 8be0 013d
000000f0: ac44 c8ba d480 ad3b d4d7 6e3e fbc3 153e
00000100: a9e8 88be a362 dd3d 39a5 2fbe 7bcc 46be
00000110: 833c 683e 1424 953e 7fa0 bdbe 5a15 24be
00000120: c12e f4bd 53fc 5abe ac50 69be c913 983e
00000130: d79d b23e 9b56 8d3e 3892 99be 7cda 2ebe
00000140: 3299 873c ee63 74be 08e8 63be b067 4cbe
00000150: 404e 8ebe 6a6a 1fbe 2b4e 69bd 969a 93be
00000160: 31bd 973e af73 a2bd 019d 5bbe 079e 0fbe
00000170: 6c39 913e 6ebb 5bbe 4af5 0dbd 8717 77be
00000180: 1cef 47be f297 afbc 8a8c 7dbe b350 4d3e
00000190: dd27 9ebd ffbd 96be 6e54 c5bd 6398 e73c
000001a0: 3cc1 0dbe f619 993e 6388 8f3e d73e f1bd
000001b0: fc0d 85be 7e54 82be 1f2f 48be e2ea fbbd
000001c0: a7ae 863d 993a 22be eba1 ecbd acb6 51be
000001d0: decb 9dbe 0a7f 4c3e fa53 cb3b 2187 6fbe
000001e0: eb4e 22be aa5f 4a3d d460 34be d8c7 c53e
000001f0: 46c8 103d 35ca 003f 1392 12be 3394 20be
00000200: 6c84 493d e7e0 633e 22fd c2bd 317a 5abd
00000210: db74 e63d 95e4 99be cb86 27be 5f98 cbbd
00000220: 959c 1b3e 6378 8d3d 1e47 863d 76cf e0bc
00000230: df46 edbd 124e 71bd 532d 3b3d 64be 833b
00000240: 9ff2 aebd 99f7 623d ba17 143d e924 2dbc
00000250: 7ce9 093d ae1c c5bd cc46 1abe 1a2e dabc
00000260: f1be 203e bf1f 82bd a780 25be 84ef 0dbc
00000270: 07c9 2a3c 1a6a 2f3e c3e9 ec3d e6fb c4bb
00000280: 7a76 f63d a6f9 c23d aaac 4bbc bc06 843e
00000290: 235f 1cbd ee4b c73d 236a fdbc cd6d 00bd
000002a0: 6d53 293e 8694 913d c553 adbd 8939 88bd
000002b0: 4bac 1a3e 666f 08bc 37a0 19be ec8d f0bd
000002c0: f33e 53be dabf aaba 6f2f b23d 57a6 3fbc
000002d0: 3dac e33a 3cf0 8f3d adf5 003e ce37 b93d
000002e0: 7fd6 10be 10c0 1a3e adfb 4cbe c04f e03d
000002f0: 3d7b b33c 6e56 4bbd 5f5c c13d 4905 8d3d
00000300: bc9a fd3d 1362 2c3e e2fd 98be abb5 d9be
00000310: 5d3c 743d 18fa 6e3e 1f5a 5ebe 1e01 9e3e
00000320: 9c17 febd 929f d9bd f559 a03e b508 a73d
00000330: 7584 2cbc 7387 b8bd c0cf aabe c6d6 fabe
00000340: b3c7 02be 5b2c 89be 4795 973e 9565 cfbe
00000350: f8ed 753e 0496 bfbd 07a4 3ebe 6fb8 22be
00000360: f37e 6abd 09b8 c3be fcbd 83bc 9cdb 73be
00000370: cb88 1abd eb94 7abe 4501 543e c5c7 bbbe
00000380: 5fdd 883d 36a8 77be fd06 c5be 33ad 263e
00000390: 2bd5 70be 3a4b fcbe 1112 ac3e 589c a0be
000003a0: 7a10 3dbe 0ea2 fcbc 26d7 f8bd e930 bbbe
000003b0: 749d f7be 2c09 9c3e 7221 963e 8e5b b8be
000003c0: d4b2 2d3d 4224 403e d6c3 d1be d388 35be
000003d0: 06a2 acbe c98e 39be c398 48be 87ea 18bf
000003e0: 590f b9be 3491 77bd 64e3 873e a9b5 bd3d
000003f0: 3b97 4fbe 4815 a23d 1103 663e 1e0b da3e

lstm.weight_ih_l1 f4 [256, 64]
0.007150584 0.35156274 -0.107683346 -0.022700034 0.0060574203 -0.20180982 0.01578741 0.261989
-0.27190933 0.17334387 -0.30868956 0.18008542 0.19379938 -0.17862459 -0.15943824 -0.06955245
0.15234566 -0.011908063 0.33509555 -0.036882866 -0.12609081 0.13583982 -0.015167279 0.034190435
-0.23008531 -0.08753362 -0.06540413 -0.105921075 0.14014034 -0.048721813 0.13475129 -0.04376445
0.16785586 0.004797373 -0.108824804 0.14244102 -0.0053390935 -0.06869216 0.15716024 0.14151062
0.39049003 -0.02542362 0.080819204 -0.065905824 0.12440059 0.027432378 0.19029355 -0.0014244147
-0.037787635 -0.113348454 0.08425801 0.00089200237 0.006167034 0.1262346 -0.018636087 -0.022081817
-0.16007353 -0.07596664 -0.17610979 -0.055374082 -0.023183584 0.05357104 -0.06625066 -0.18823303
0.24795213 0.2569465 0.07513752 -0.029301634 -0.088191144 -0.059907008 -0.030158523 0.21973991
0.004143774 0.028143514 -0.27888447 0.005884942 0.20620166 0.1856324 -0.10620565 0.01724907
0.21420322 -0.17504518 -0.07257118 0.19129665 -0.084609464 0.0025892276 -0.031610973 0.05014745
-0.36203313 0.052259184 0.025635244 0.03814022 0.0555617 -0.06089528 0.10501569 -0.023557732
0.5132521 -0.014976001 -0.12483393 -0.076866746 0.17791829 -0.24792013 0.40305522 0.14368008
0.16056563 0.035098642 0.2785141 -0.10865756 0.039140638 0.20117433 -0.38793796 -0.13472132
0.12924868 -0.4671738 -0.05152913 -0.022451611 -0.14467531 -0.22170168 0.060942706 -0.020277398
-0.052861545 -0.106291726 0.021268489 -0.22467752 0.03008969 0.06548545 0.14509112 -0.21405175
-0.2657986 0.1999181 -0.08480118 0.11190165 0.614407 -0.20701672 -0.032577608 0.036388826
-0.21627656 0.15185644 0.15370257 -0.56401545 -0.45140442 -0.4093275 0.055143755 -0.20314851
-0.45587254 0.1296943 0.31244522 0.026175888 -0.15046795 0.23373373 -0.21689355 -0.12094834
0.5363092 -0.17245449 -0.30927038 -0.09627668 -0.52778053 0.1753317 0.025246624 0.17790926
-0.10764182 0.06844901 0.26052773 0.34162804 -0.22132966 0.1674294 -0.23858169 -0.19185472
-0.14681518 -0.7658614 -0.29317358 -0.06149036 0.010129031 -0.004265737 0.24108279 -0.14080499
-0.22664519 0.17557324 -0.15164839 0.055467483 -0.174727 0.6507435 -0.019670472 0.041631304
-0.13938844 0.3642944 0.01665793 0.50587416 0.15371181 -0.52062017 -0.06886641 0.12612875
-0.06950632 0.3163896 0.057906475 0.19271368 0.25318974 -0.17508997 -0.26662531 -0.020463685
-0.047603574 0.31609988 -0.18266764 -0.23129833 -0.021660455 -0.18486434 -0.026615657 -0.13798828
-0.26522908 0.014095983 0.046045117 0.022463763 0.0348238 0.10948248 -0.079124644 -0.20691706
-0.09542565 0.015973218 -0.24480692 0.045446422 -0.02700529 0.08548741 0.1455329 0.264446
0.17770572 0.054551765 0.09923031 0.12094061 -0.28568164 0.3388584 0.19964358 -0.06100473
0.056268983 -0.19607715 -0.053064905 -0.22485624 0.16541371 -0.06263342 0.17843755 -0.16773024
-0.056351494 -0.05566764 -0.07651276 -0.04799644 -0.18495157 0.22389603 0.07674749 0.116707936
-0.11833476 0.11014968 -0.09939733 0.097040765 0.31585065 -0.09512565 0.015407919 0.049189486
00000000: 724f ea3b 0800 b43e 1689 dcbd 6cf5 b9bc
00000010: 537d c63b 3ca7 4ebe 9954 813c 6c23 863e
00000020: b337 8bbe 0e81 313e 8f0c 9ebe 5068 383e
00000030: 5873 463e 5de9 36be c743 23be 8471 8ebd
00000040: 8000 1c3e 091a 43bc a591 ab3e 7d12 17bd
00000050: f31d 01be 9819 0b3e 2e80 78bc 450b 0c3d
00000060: 7c9b 6bbe d444 b3bd 9af2 85bd 26ed d8bd
00000070: f380 0f3e 8690 47bd 3efc 093e 5a42 33bd
00000080: 68e2 2b3e 4833 9d3b 8adf debd 0fdc 113e
00000090: 90f3 aebb 7aae 8cbd 9dee 203e 29e8 103e
000000a0: 4fee c73e 3245 d0bc 8a84 a53d a2f9 86bd
000000b0: bdc5 fe3d deb9 e03c 50dc 423e 6db3 baba
000000c0: 35c7 1abd 3c23 e8bd 778f ac3d 44d5 693a
000000d0: d514 ca3b a543 013e b5aa 98bc ede4 b4bc
000000e0: 51ea 23be 6694 9bbd 2056 34be efcf 62bd
000000f0: 80eb bdbc 4f6d 5b3d 6dae 87bd 29c0 40be
00000100: 2ae7 7d3e 7e8e 833e b3e1 993d fb09 f0bc
00000110: 8f9d b4bd 0d61 75bd 020f f7bc 8003 613e
00000120: 7fc8 873b 3a8d e63c f2c9 8ebe 79d6 c03b
00000130: 8726 533e 6b16 3e3e 5982 d9bd ec4d 8d3c
00000140: 1758 5b3e 0b3f 33be 33a0 94bd 45e3 433e
00000150: ba47 adbd 08b0 293b 827a 01bd 6a67 4d3d
00000160: 685c b9be ba0d 563d 0101 d23c eb38 1c3d
00000170: aa94 633d 546d 79bd 7712 d73d 25fc c0bc
00000180: 7d64 033f e75d 75bc eea8 ffbd 506c 9dbd
00000190: 3630 363e c6de 7dbe 415d ce3e df20 133e
000001a0: 516b 243e 98c3 0f3d 6699 8e3e db87 debd
000001b0: ef51 203d a500 4e3e ce9f c6be 63f4 09be
000001c0: c459 043e 6831 efbe 3610 53bd 71ec b7bc
000001d0: c425 14be c405 63be 0f9f 793d c91c a6bc
000001e0: 5985 58bd 7aaf d9bd 413b ae3c dd11 66be
000001f0: a77e f63c 3c1d 863d c492 143e 6230 5bbe
00000200: c116 88be 55b7 4c3e 3eac adbd b12c e53d
00000210: c749 1d3f 31fc 53be 1970 05bd 730c 153d
00000220: 9a77 5dbe 4180 1b3e 3564 1d3e 5163 10bf
00000230: 7b1e e7be 6093 d1be 6bde 613d 2a06 50be
00000240: 2068 e9be 95ce 043e d2f8 9f3e d16e d63c
00000250: 4514 1abe e557 6f3e 5819 5ebe c3b3 f7bd
00000260: 8f4b 093f e997 30be b058 9ebe b52c c5bd
00000270: a01c 07bf 278a 333e 02d2 ce3c d82d 363e
00000280: 5173 dcbd ff2e 8c3d e463 853e dfe9 ae3e
00000290: 3ea4 62be 9d72 2b3e c24e 74be 9075 44be
000002a0: b856 16be 7e0f 44bf d91a 96be 51dd 7bbd
000002b0: 3cf4 253c 98c7 8bbb 68de 763e 2f2f 10be
000002c0: ad15 68be 79c9 333e b749 1bbe df31 633d
000002d0: a2eb 32be 2097 263f f823 a1bc 9685 2a3d
000002e0: d8bb 0ebe cc84 ba3e 3676 883c f880 013f
000002f0: a166 1d3e 5d47 05bf d509 8dbd e527 013e
00000300: 5459 8ebd d1fd a13e 572f 6d3d bc56 453e
00000310: 16a2 813e c94a 33be 1d83 88be 75a3 a7bc
00000320: f7fb 42bd d8d7 a13e 3a0d 3bbe 78d9 6cbe
00000330: 4471 b1bc 144d 3dbe 1409 dabc cd4c 0dbe
00000340: 1bcc 87be d6f2 663c ce99 3c3d ed05 b83c
00000350: 67a3 0e3d 5a38 e03d 1a0c a2bd 11e2 53be
00000360: 866e c3bd 44da 823c aaae 7abe 0726 3a3d
00000370: 333a ddbc 0614 af3d 9406 153e 7765 873e
00000380: 7df8 353e ac71 5f3d 4339 cb3d b6af f73d
00000390: dd44 92be d97e ad3e 5e6f 4c3e 19e0 79bd
000003a0: 4e7a 663d 73c8 48be 965a 59bd b740 66be
000003b0: 3662 293e f345 80bd 55b8 363e 7ac1 2bbe
000003c0: d3d0 66bd c003 64bd b9b2 9cbd ea97 44bd
000003d0: f263 3dbe 0045 653e ca2d 9d3d 9204 ef3d
000003e0: 7f59 f2bd 2896 e13d d490 cbbd 4fbd c63d
000003f0: 2db7 a13e 3dd1 c2bd 7f71 7c3c ea7a 493d

lstm.weight_hh_l1 f4 [256, 64]
0.1526081 0.09299703 -0.1652345 -0.035359588 0.051395223 -0.28323728 -0.19149014 0.17240697
-0.38924488 -0.018853698 0.104943454 -0.04780166 0.034224465 -0.06875539 -0.10036198 -0.27800015
0.2327251 0.10912338 -0.3015802 -0.05261343 -0.22063659 -0.106840305 -0.18795356 0.2269085
0.27493563 -0.007899209 0.36939245 0.12573518 0.21507975 -0.45737317 0.4026357 0.21749383
0.15320452 -0.25167015 0.18400094 -0.12435394 -0.1191977 0.18636209 0.2855021 -0.18390386
0.046232797 -0.03262659 -0.1312058 -0.13000137 0.17129798 -0.0015136033 -0.16004056 -0.045204088
0.22631724 0.21524471 0.23767737 0.16663727 -0.21803418 -0.49546856 0.071753286 -0.08245177
0.10330724 -0.108078204 0.18093303 -0.20135695 0.0819642 -0.06261264 -0.036016475 -0.013005031
0.116803184 -0.028229874 0.14723668 -0.03761758 0.058739398 0.025523432 -0.2995402 -0.054345813
0.14601035 0.08446121 0.18767256 -0.068115376 0.32993782 -0.020661395 0.30329984 0.19959769
0.037783008 -0.027011048 -0.06815318 -0.049914107 0.10209645 0.34272814 -0.24065359 0.09521497
0.021273667 0.100692846 -0.05126082 -0.03893632 -0.2822955 -0.05084596 0.2134891 0.36165214
-0.14434001 -0.25710747 -0.086968884 0.020048749 0.03773868 0.04433705 0.056924015 0.28883794
-0.3946046 0.065708384 0.19632769 -0.052212663 -0.03911968 0.05756826 -0.26255593 0.16317761
-0.028408647 -0.30332062 0.47863147 0.42097977 0.03382828 -0.22037348 0.07133431 -0.10710219
-0.11869227 0.28210294 -0.16839291 0.010713699 0.041927688 0.24233106 -0.24899013 -0.18013354
-0.03993425 0.1929334 -0.31777468 0.07482711 -0.17944743 -0.090158165 0.35592887 0.12293999
-0.03394241 -0.12309933 -0.38135782 -0.14542282 -0.30853426 0.03641067 -0.27896833 -0.17263545
-0.12329769 -0.061972994 -0.11696163 0.09603167 0.0043088207 -0.2369094 0.27256423 0.10792991
0.0067965356 -0.26575834 -0.033730276 -0.02981117 0.12450665 0.053510018 -0.45096245 -0.10424715
0.1297746 0.22478919 0.18622918 -0.23036131 -0.20407274 0.15288734 -0.31248665 -0.23798493
0.1735819 -0.1955056 -0.1361071 -0.1766853 0.1759662 0.009015444 -0.06582016 -0.18603112
0.06289853 0.08587786 -0.28152665 -0.37947807 0.019460684 0.08052983 0.22770515 0.11941801
0.08205512 -0.087149404 -0.025005626 -0.016316019 0.1618075 -0.012270764 0.16838306 0.05632423
0.054785695 0.06298501 -0.034880437 -0.027247343 0.08444126 0.019593652 0.112079866 0.17446667
-0.31771833 -0.11099478 -0.14612295 -0.21584274 -0.05121764 0.012921661 0.016997458 -0.12359963
-0.039155867 -0.28113353 -0.28097647 -0.1628057 0.06561103 -0.09130325 -0.061854947 0.15597382
-0.05470688 -0.18395148 0.01681868 0.20269299 0.022977633 0.06082446 -0.064902864 -0.060291104
0.027496343 0.06889823 -0.1531889 -0.04042988 -0.12232189 0.16701274 -0.067351796 -0.032780234
-0.06827863 -0.03877189 0.116590925 0.0001747015 0.14655797 0.045698874 -0.16004962 -0.023103943
0.026120909 0.010844004 -0.097967826 -0.06595018 -0.034871306 -0.09509099 0.10885712 -0.007937175
0.10749164 -0.1044639 0.067080475 0.062579796 -0.0117526995 0.3221989 0.057908256 0.0028160517
00000000: 4c45 1c3e 3a75 be3d 3c33 29be 37d5 10bd
00000010: cc83 523d 7a04 91be fe15 44be 748b 303e
00000020: 1b4b c7be 1273 9abc 98ec d63d accb 43bd
00000030: f42e 0c3d a0cf 8cbd 958a cdbd 0956 8ebe
00000040: 7d4f 6e3e 147c df3d b868 9abe 2e81 57bd
00000050: 8fee 61be 17cf dabd e676 40be b45a 683e
00000060: 5dc4 8c3e af6b 01bc 0221 bd3e b9c0 003e
00000070: de3d 5c3e d12c eabe 4426 ce3e b4b6 5e3e
00000080: a5e1 1c3e e9da 80be be6a 3c3e 47ad febd
00000090: ec1d f4bd b4d5 3e3e 552d 923e 4b51 3cbe
000000a0: 9a5e 3d3d 76a3 05bd d05a 06be 141f 05be
000000b0: bd68 2f3e 1964 c6ba ace1 23be ec27 39bd
000000c0: b5bf 673e 1c69 5c3e b261 733e f6a2 2a3e
000000d0: 5a44 5fbe 0eae fdbe 63f3 923d 79dc a8bd
000000e0: bf92 d33d 1b58 ddbd 8246 393e 8430 4ebe
000000f0: d9dc a73d 0e3b 80bd 0386 13bd 0e13 55bc
00000100: 8236 ef3d 5642 e7bc 36c5 163e e414 1abd
00000110: b998 703d 8416 d13c 555d 99be b799 5ebd
00000120: bd83 153e 00fa ac3d 3c2d 403e 1380 8bbd
00000130: 9ced a83e 1642 a9bc 1e4a 9b3e 5663 4c3e
00000140: 5bc2 1a3d 4646 ddbc e593 8bbd bc72 4cbd
00000150: f217 d13d 107a af3e e56d 76be 1100 c33d
00000160: 1d46 ae3c 0d38 ce3d def6 51bd b17b 1fbd
00000170: 0989 90be da43 50bd e39c 5a3e 782a b93e
00000180: decd 13be 97a3 83be be1c b2bd 463d a43c
00000190: e093 1a3d c49a 353d 2829 693d 91e2 933e
000001a0: 9d09 cabe 1e92 863d 200a 493e f2dc 55bd
000001b0: f53b 20bd b2cc 6b3d bb6d 86be 0818 273e
000001c0: 40b9 e8bc d74c 9bbe 2f0f f53e a98a d73e
000001d0: 868f 0a3d 96a9 61be b917 923d 6558 dbbd
000001e0: ef14 f3bd cc6f 903e 316f 2cbe 8388 2f3c
000001f0: 5ebc 2b3d a225 783e 45f7 7ebe ed74 38be
00000200: 1992 23bd 5590 453e 5db3 a2be f53e 993d
00000210: 11c1 37be d8a4 b8bd 4f3c b63e f6c7 fb3d
00000220: 3207 0bbd 801b fcbd 5541 c3be b8e9 14be
00000230: 34f8 9dbe 5b23 153d f0d4 8ebe 59c7 30be
00000240: 8083 fcbd 65d7 7dbd 9489 efbd 41ac c43d
00000250: 0231 8d3b 6198 72be 8a8d 8b3e 5b0a dd3d
00000260: 79b5 de3b 7a11 88be c228 0abd 8e36 f4bc
00000270: 58fd fe3d 522d 5b3d 8de4 e6be 887f d5bd
00000280: a2e3 043e 232f 663e ddb2 3e3e d6e3 6bbe
00000290: 72f8 50be 808e 1c3e 40fe 9fbe 52b2 73be
000002a0: 74bf 313e 9f32 48be a95f 0bbe feec 34be
000002b0: 7c30 343e 83b5 133c b8cc 86bd f17e 3ebe
000002c0: f2d0 803d bbe0 af3d 4324 90be f34a c2be
000002d0: 036c 9f3c d3ec a43d 8a2b 693e 6e91 f43d
000002e0: 840c a83d 637b b2bd 99d8 ccbc 2ca9 85bc
000002f0: deb0 253e 510b 49bc 9c6c 2c3e 3cb4 663d
00000300: f766 603d 49fe 803d cade 0ebd d235 dfbc
00000310: 8aef ac3d de82 a03c 218a e53d 64a7 323e
00000320: faab a2be 3b51 e3bd 41a1 15be e105 5dbe
00000330: 97c9 51bd 60b5 533c 413e 8b3c ce21 fdbd
00000340: e761 20bd bcf0 8fbe 26dc 8fbe 8ab6 26be
00000350: 135f 863d 33fd babd 9d5b 7dbd 9ab7 1f3e
00000360: 5214 60bd c75d 3cbe 54c7 893c c08e 4f3e
00000370: 973b bc3c 1223 793d cbeb 84bd cef3 76bd
00000380: 0340 e13c 841a 8d3d 8ddd 1cbe cd99 25bd
00000390: e683 fabd 6305 2b3e bdef 89bd 9144 06bd
000003a0: abd5 8bbd 46cf 1ebd 39c7 ee3d 1430 3739
000003b0: 4b13 163e be2e 3b3d 0ce4 23be 7b44 bdbc
000003c0: 84fb d53c 0dab 313c 5ba3 c8bd e310 87bd
000003d0: 37d5 0ebd 11bf c2bd 7bf0 de3d ed0a 02bc
000003e0: 9424 dc3d 2bf1 d5bd 7d61 893d d629 803d
000003f0: 658e 40bc 41f7 a43e 3531 6d3d 828d 383b

lstm.bias_ih_l1 f4 [256]
-0.07154993 -0.4275157 0.51168233 0.045297455 -0.052963246 -0.19478044 0.103819706 -0.0657958
0.21467268 -0.064320855 -0.049606163 -0.29820842 -0.22490892 -0.35340682 -0.17491533 0.3084982
-0.10979282 -0.10884358 0.07164188 0.05477324 -0.24214238 -0.16485193 0.28025025 -0.052207436
-0.057196766 -0.28029895 -0.06317631 -0.15737072 0.47920486 0.13441204 0.03864671 -0.25779366
-0.20399499 0.06699038 0.28642187 -0.1792271 -0.038270816 -0.19333468 0.03967379 -0.12234671
0.055926964 -0.10799605 -0.3163118 -0.28250298 0.18266685 -0.04459092 0.08910495 -0.3871793
0.13331915 0.20355816 -0.07369747 -0.13485475 -0.0261478 -0.13853145 0.18049662 0.17276862
-0.011373328 -0.25510526 -0.2066673 0.020359334 -0.29044554 -0.22830427 -0.066798665 -0.3186627
0.104656816 -0.06258011 0.102970794 -0.14795521 -0.050490353 -0.30699614 -0.06799576 0.0025072647
0.17277591 -0.011930954 -0.13741815 -0.19383095 -0.21497518 -0.06606611 -0.09988045 -0.09407845
0.07543669 0.009114099 -0.04854745 -0.1793833 -0.20753457 -0.17907101 -0.2001737 -0.16140886
-0.18971552 -0.11054559 -0.09202998 -0.1209336 -0.012645931 -0.18226522 -0.13536185 -0.10600205
-0.13586868 0.18151277 -0.15237287 -0.17731355 -0.13371457 -0.14034015 -0.079445966 0.0055976934
-0.016108936 0.0049792086 -0.15154232 -0.07955748 -0.19208269 -0.1114596 -0.18422997 -0.15133354
-0.028204687 -0.17462336 -0.08420661 -0.07863858 -0.12457331 -0.032069337 -0.0803144 -0.030196797
-0.067797646 -0.04465365 -0.09455258 0.13554995 -0.1267644 0.00089223 0.10909063 -0.117303655
-0.028032098 0.071186215 -0.24911278 0.08219336 0.050816275 -0.11706781 0.14287266 0.12213203
0.2001644 0.1305093 -0.07892482 0.05055038 0.0011261605 0.029694641 0.01647429 -0.052506585
0.13840708 0.15342614 -0.108902425 -0.060942974 -0.00077298924 0.0033652466 0.07817684 0.19808067
-0.18181801 -0.012926339 0.06634336 0.074109964 0.03202614 -0.16871363 0.0716673 -0.012242712
0.07244287 0.0424989 0.18705039 -0.11023933 -0.067829505 -0.015467812 0.08265075 0.06536926
-0.024981527 0.11026098 -0.084134854 -0.010345158 0.015736459 0.06997511 0.089134514 -0.10195031
0.017925242 0.090945624 0.0036038477 0.11135965 0.07412354 -0.019562429 -0.072207294 0.13331091
-0.22759637 0.017143581 0.13136514 -0.16659679 0.014631862 -0.07804182 -0.091339216 0.0075500393
0.40427095 -0.23091626 -0.3107054 0.13542962 0.24597059 -0.09150879 0.35020995 -0.31097445
-0.16695812 0.1709084 0.02149048 -0.42940894 -0.2626118 -0.3924366 -0.22647257 0.17174004
0.047572117 0.18601225 -0.052795585 -0.040641237 -0.31445757 -0.16370322 0.2847771 -0.18553929
-0.13290693 -0.43171927 -0.043644942 0.07717548 0.20637591 0.07654618 0.07030962 -0.24237578
-0.1612727 0.06098006 0.37188652 -0.213193 -0.18397176 -0.34787565 0.3422087 -0.12076103
-0.065165885 0.077341646 -0.08818327 -0.16230442 0.44594043 -0.03835083 0.07917008 -0.45599657
0.27273548 -0.09928792 -0.111809276 -0.21081974 0.008882304 0.19581169 0.27161476 0.28480637
0.0066422145 -0.21694082 -0.39120162 -0.0051133437 -0.4266904 -0.037580527 -0.052107666 -0.3413178
00000000: c588 92bd 56e3 dabe 9dfd 023f d389 393d
00000010: fdef 58bd 8674 47be 6d9f d43d f3bf 86bd
00000020: 28d3 5b3e a7ba 83bd d52f 4bbd c6ae 98be
00000030: 864e 66be bdf1 b4be 011d 33be 7af3 9d3e
00000040: 0fdb e0bd 62e9 debd fab8 923d e859 603d
00000050: 2cf4 77be f2ce 28be f67c 8f3e 77d7 55bd
00000060: 2847 6abd 5883 8fbe 9562 81bd ca25 21be
00000070: 575a f53e 4fa3 093e 034c 1e3d 88fd 83be
00000080: 10e4 50be 4132 893d e3a5 923e 4f87 37be
00000090: dcc1 1cbd 87f9 45be fc80 223d e990 fabd
000000a0: ac13 653d 082d ddbd 9ff3 a1be 3ba4 90be
000000b0: 050d 3b3e f8a4 36bd a87c b63d 5d3c c6be
000000c0: d184 083e 8d71 503e b3ee 96bd 5d17 0abe
000000d0: e933 d6bc 30db 0dbe 1bd4 383e 42ea 303e
000000e0: 3257 3abc 289d 82be 98a0 53be 9ec8 a63c
000000f0: 47b5 94be 98c8 69be bdcd 88bd c227 a3be
00000100: 5056 d63d 002a 80bd 5ae2 d23d 9281 17be
00000110: f9ce 4ebd 992e 9dbe 5c41 8bbd ec50 243b
00000120: 2bec 303e 0c7a 43bc 58b7 0cbe 9f7b 46be
00000130: 7422 5cbe ab4d 87bd 1f8e ccbd 34ac c0bd
00000140: 8d7e 9a3d 4d53 153c b1d9 46bd 41b0 37be
00000150: f183 54be 645e 37be 56fa 4cbe 5d48 25be
00000160: c944 42be ba65 e2bd 377a bcbd 09ac f7bd
00000170: e130 4fbc bca3 3abe 4c9c 0abe 9a17 d9bd
00000180: 2921 0bbe 7cde 393e a207 1cbe af91 35be
00000190: 79ec 08be 54b5 0fbe 91b4 a2bd db6c b73b
000001a0: e3f6 83bc a128 a33b e92d 1bbe 08ef a2bd
000001b0: 53b1 44be ee44 e4bd c8a6 3cbe 2ef7 1abe
000001c0: 840d e7bc 77d0 32be 8474 acbd 440d a1bd
000001d0: 4b20 ffbd 235b 03bd e07b a4bd 465f f7bc
000001e0: 7ed9 8abd bfe6 36bd c8a4 c1bd 9bcd 0a3e
000001f0: 87ce 01be 8be4 693a e96a df3d e63c f0bd
00000200: 92a3 e5bc 14ca 913d 6c17 7fbe fe54 a83d
00000210: ba24 503d 3fc1 efbd 364d 123e 5c20 fa3d
00000220: e5f7 4c3e 3ba4 053e 56a3 a1bd ea0d 4f3d
00000230: ad9b 933a 2d42 f33c 17f5 863c 2511 57bd
00000240: 96ba 0d3e be1b 1d3e 3c08 dfbd 579f 79bd
00000250: 6ea2 4aba 788b 5c3b 2e1b a03d a9d5 4a3e
00000260: 802e 3abe ffc8 53bc 07df 873d f7c6 973d
00000270: d72d 033d 44c3 2cbe 4ec6 923d a895 48bc
00000280: ed5c 943d 5413 2e3d 238a 3f3e 28c5 e1bd
00000290: 32ea 8abd b56c 7dbc cc44 a93d 52e0 853d
000002a0: 0fa6 ccbc 82d0 e13d e54e acbd bd7e 29bc
000002b0: bfe9 803c 1c4f 8f3d 288c b63d 53cb d0bd
000002c0: f5d7 923c b341 ba3d 882e 6c3b 8710 e43d
000002d0: 15ce 973d 6341 a0bc 6be1 93bd a882 083e
000002e0: 060f 69be b270 8c3c 9584 063e 5998 2abe
000002f0: 7aba 6f3c 64d4 9fbd 0e10 bbbd 5266 f73b
00000300: 9afc ce3e 5075 6cbe c714 9fbe 10ae 0a3e
00000310: b7df 7b3e f668 bbbd b84e b33e 0b38 9fbe
00000320: 12f7 2abe 9d02 2f3e ce0c b03c 7ddb dbbe
00000330: 0e75 86be 73ed c8be 6de8 67be 9fdc 2f3e
00000340: fbda 423d ff79 3e3e 2f40 58bd 6d77 26bd
00000350: 9500 a1be d1a1 27be 4ece 913e 03fe 3dbe
00000360: c118 08be 4f0a ddbe 0ac5 32bd 2e0e 9e3d
00000370: 3554 533e 3ec4 9c3d 7dfe 8f3d 5b31 78be
00000380: ac24 25be 3ac6 793d e967 be3e 444f 5abe
00000390: 1863 3cbe c21c b2be fb35 af3e 8f51 f7bd
000003a0: b175 85bd 4c65 9e3d 6e99 b4bd 2133 26be
000003b0: 4e52 e43e c315 1dbd ec23 a23d 6278 e9be
000003c0: fca3 8b3e 7757 cbbd 43fc e4bd 21e1 57be
000003d0: 1587 113c dc82 483e 1711 8b3e 24d2 913e
000003e0: efa6 d93b bc25 5ebe 944b c8be d68d a7bb
000003f0: 2a77 dabe 0aee 19bd d96e 55bd 35c1 aebe

lstm.bias_hh_l1 f4 [256]
-0.15023977 -0.40579948 0.32218125 0.123539664 -0.09177851 -0.09155908 0.23550592 -0.04035889
0.13424572 0.039974242 -0.12925343 -0.34076315 -0.20348531 -0.20005232 -0.039484173 0.3506146
-0.13451262 -0.19677609 -0.09668911 -0.047048 -0.18436985 -0.23350206 0.3466059 -0.09937664
-0.15624428 -0.21789086 -0.06416343 -0.13323985 0.4575487 0.03735685 0.05499281 -0.21205817
-0.14982694 -0.113244414 0.28345358 -0.10453051 -0.14060925 -0.17720565 -0.12401568 -0.112695076
0.021089824 -0.25895968 -0.17252837 -0.23021498 0.27750903 -0.17642553 0.11511163 -0.35083783
0.17480096 0.14768459 -0.09385892 -0.09869922 0.0874721 -0.022875434 0.38690108 0.1237178
0.10557409 -0.15740593 -0.32691023 0.009269067 -0.33574656 -0.09206097 -0.06634782 -0.15766679
-0.06093019 -0.19596465 0.2538773 -0.16681835 -0.08554729 -0.13132772 -0.12502427 0.0318116
-0.008365072 -0.0039610965 0.03937041 -0.038580682 -0.035165966 0.0059369034 -0.06839608 -0.031827375
-0.0012784956 0.028426245 -2.9653906e-05 -0.060201887 -0.2645767 -0.14382836 -0.1465655 -0.10735012
-0.14084359 -0.029635826 -0.067613244 -0.034227584 -0.14320564 0.056751054 -0.111000784 -0.04546489
-0.21041124 0.09895823 -0.29475015 -0.21589057 -0.12142426 -0.051552556 0.003276147 -0.07635803
-0.09691163 0.06913908 -0.14773293 -0.11106138 -0.08215569 -0.078006804 -0.16531494 0.054984126
-0.13518007 -0.051074363 -0.070344925 -0.24823734 -0.19706364 0.04164765 -0.19794057 -0.21171716
-0.03712345 -0.0896126 -0.27786154 0.1466495 -0.020509519 -0.031887185 -0.010762 -0.09923883
0.18686946 -0.057065673 -0.04831318 -0.05158158 0.06261798 -0.07460537 0.058798973 0.02933707
0.11505598 0.07246875 -0.028653061 0.08427475 -0.15945098 -0.036544703 -0.06906875 -0.061377786
0.13114469 0.108622186 -0.15809034 -0.04610491 -0.092440054 0.07022992 0.15504806 0.1030403
-0.08570541 0.1131543 -0.109638855 -0.024338234 0.16631262 -0.009813716 0.09285674 0.022679983
0.049717035 -0.031772476 0.16967668 -0.064546034 -0.066714235 0.04527252 -0.0834175 -0.0036254076
0.051974736 0.005090249 -0.14224516 0.0059682396 -0.06443852 -0.07160711 0.012057378 0.060674567
0.17578964 0.04400656 0.17148282 -0.049025107 0.0049444605 -0.19498475 -0.13103567 0.10936174
-0.23956546 0.011006254 0.017340843 -0.14715858 0.023152735 -0.13282835 -0.09525317 0.001932939
0.33693257 -0.23002023 -0.16171989 0.18579668 0.43362588 -0.13651095 0.1331567 -0.2282627
-0.07852627 0.2041273 0.09631134 -0.3006978 -0.21876155 -0.22453023 -0.034858335 0.11262017
-0.019764513 0.23167929 -0.216702 0.02553789 -0.3644791 -0.23381564 0.34607303 -0.21161436
-0.072148524 -0.27725932 0.005544454 -0.10271375 0.143011 0.12329893 0.12813514 -0.15237388
-0.19976681 0.07997554 0.40862948 -0.06507452 -0.055827506 -0.24345401 0.38946697 -0.1317453
-0.16648416 0.10827027 -0.19943503 -0.26388574 0.34069318 -0.061851468 0.2181516 -0.4504287
0.19092001 -0.11815103 -0.122007705 -0.15298481 -0.055289723 -0.042791374 0.44716388 0.19846362
0.16206235 -0.24627638 -0.4041831 -0.12475573 -0.2639726 -0.052049562 -0.060397316 -0.22909507
00000000: 74d8 19be f3c4 cfbe f1f4 a43e 5d02 fd3d
00000010: 5ff6 bbbd 5483 bbbd 7728 713e 5d4f 25bd
00000020: b677 093e 08bc 233d 035b 04be 8278 aebe
00000030: 745e 50be 84da 4cbe 28ba 21bd c283 b33e
00000040: adbd 09be ac7f 49be f104 c6bd 67b5 40bd
00000050: 73cb 3cbe 2a1b 6fbe 5476 b13e fb85 cbbd
00000060: 80fe 1fbe c81e 5fbe 1e68 83bd 0770 08be
00000070: d343 ea3e 7f03 193d 2440 613d c725 59be
00000080: 3c6c 19be b0ec e7bd d420 913e 1814 d6bd
00000090: dffb 0fbe 6675 35be effb fdbd adcc e6bd
000000a0: 91c4 ac3c 5d96 84be 47ab 30be 7abd 6bbe
000000b0: aa15 8e3e e5a8 34be a5bf eb3d 04a1 b3be
000000c0: 06ff 323e a13a 173e 1b39 c0bd d122 cabd
000000d0: 9324 b33d 4365 bbbc e617 c63e c25f fd3d
000000e0: 3a37 d83d 052f 21be c760 a7be 49dd 173c
000000f0: f9e6 abbe 768a bcbd 5ee1 87bd 6773 21be
00000100: ef91 79bd f5aa 48be 35fc 813e 6ed2 2abe
00000110: 6b33 afbd c67a 06be 5d06 00be e14c 023d
00000120: a80d 09bc 16cc 81bb de42 213d c706 1ebd
00000130: 300a 10bd 5b8a c23b 3e13 8cbd 6c5d 02bd
00000140: 3293 a7ba 28de e83c 47c1 f8b7 4196 76bd
00000150: 9976 87be be47 13be 4415 16be 61da dbbd
00000160: 4d39 10be d5c6 f2bc d078 8abd 3932 0cbd
00000170: 80a4 12be cb73 683d 6154 e3bd 6439 3abd
00000180: 0b76 57be 9daa ca3d 7ee9 96be 6b12 5dbe
00000190: 48ad f8bd c628 53bd a0b4 563b 9961 9cbd
000001a0: 9b79 c6bd ca98 8d3d 4d47 17be 2674 e3bd
000001b0: 3e41 a8bd 08c2 9fbd 5248 29be 0937 613d
000001c0: a56c 0abe 5a33 51bd 0011 90bd ee31 7ebe
000001d0: 0dcb 49be ba96 2a3d efb0 4abe 62cc 58be
000001e0: c20e 18bd d086 b7bd de43 8ebe 492b 163e
000001f0: 9403 a8bc 239c 02bd 1a53 30bc ba3d cbbd
00000200: b55a 3f3e b2bd 69bd 0be4 45bd 3547 53bd
00000210: db3d 803d b3ca 98bd 31d7 703d 4c54 f03c
00000220: 78a2 eb3d 7f6a 943d d3b9 eabc 3d98 ac3d
00000230: 1e47 23be e6af 15bd eb73 8dbd 4667 7bbd
00000240: cb4a 063e 4f75 de3d 6fe2 21be 81d8 3cbd
00000250: 3651 bdbd b4d4 8f3d ebc4 1e3e cb06 d33d
00000260: 5186 afbd 71bd e73d 568a e0bd fa60 c7bc
00000270: db4d 2a3e b5c9 20bc ad2b be3d 5fcb b93c
00000280: 17a4 4b3d db23 02bd b9bf 2d3e b630 84bd
00000290: 79a1 88bd ae6f 393d cbd6 aabd 3f98 6dbb
000002a0: 76e3 543d 1acc a63b b7a8 11be 3991 c33b
000002b0: 58f8 83bd c0a6 92bd 4f8c 453c e585 783d
000002c0: 3302 343e 3940 343d 3199 2f3e 8dce 48bd
000002d0: 2405 a23b 15aa 47be 372e 06be 0cf9 df3d
000002e0: a650 75be 9353 343c 620e 8e3c bdb0 16be
000002f0: ceaa bd3c 2804 08be 1814 c3bd ac5a fd3a
00000300: 6d82 ac3e 6c8a 6bbe e699 25be 7c41 3e3e
00000310: 3604 de3e 87c9 0bbe 3b5a 083e b2bd 69be
00000320: 62d2 a0bd bf06 513e e13e c53d 10f5 99be
00000330: 0703 60be 41eb 65be 9dc7 0ebd 67a5 e63d
00000340: 30e9 a1bc 563d 6d3e 21e7 5dbe d634 d13c
00000350: 019d babe 5e6d 6fbe 7c30 b13e 6fb1 58be
00000360: 9bc2 93bd eff4 8dbe 40ae b53b 965b d2bd
00000370: 7a71 123e 2684 fc3d dc35 033e e607 1cbe
00000380: ac8f 4cbe 37ca a33d e237 d13e ca45 85bd
00000390: 62ab 64bd 024c 79be 3768 c73e 3de8 06be
000003a0: d37a 2abe cebc dd3d b238 4cbe 081c 87be
000003b0: 566f ae3e f757 7dbd 2263 5f3e 979e e6be
000003c0: 8980 433e 2bf9 f1bd 2ddf f9bd 0da8 1cbe
000003d0: 7a77 62bd 0246 2fbd aaf2 e43e 0c3a 4b3e
000003e0: acf3 253e e02f 7cbe 16f1 cebe ef7f ffbd
000003f0: 6b27 87be ec31 55bd 2d63 77bd e697 6abe
